model/best_model.pth (torch_old, 58117 bytes, 29 tensors)

emb.weight f4 [24, 4]
00000000: a4c1 24be 3497 e1bd 1293 7e3c a089 f4bd
00000010: c0c4 24be f1b4 e1bd 6f0d 803c eb72 f6bd
00000020: 7477 24be acdc e1bd 1b2a 7e3c 5b55 f5bd
00000030: 38c5 24be 3a80 e1bd b55c 7e3c 75a8 f5bd
00000040: e8a7 24be 80c5 e0bd 3646 7f3c 7bf3 f4bd
00000050: e480 24be 613a e2bd 21bf 7e3c aec6 f4bd
00000060: 63c8 24be 2e3b e2bd 879c 7f3c 9f6e f4bd
00000070: f68f 24be 525c e2bd 5d83 7e3c a171 f5bd
00000080: 91d1 24be 2ff6 e1bd 30cd 7e3c 79fc f4bd
00000090: 4ebf 24be 7764 e2bd 9deb 7d3c 9240 f4bd
000000a0: 3bfc 24be ca3f e1bd ce2e 7d3c 640b f5bd
000000b0: bcad 24be b67b e1bd 2759 7f3c 7e34 f5bd
000000c0: e93d 24be dcfa e1bd 8daf 833c e75a f5bd
000000d0: 3667 24be 0cac e1bd 4ab4 7b3c 713b f5bd
000000e0: b1a4 24be bc4c e2bd bc03 7b3c 8799 f4bd
000000f0: 7291 24be 265e e1bd 9472 7f3c 4a74 f4bd
00000100: 659a 24be 5b3a e1bd 89e0 813c 5572 f4bd
00000110: 8ecd 24be 0ae3 e1bd a285 7e3c eaba f4bd
00000120: c582 24be 984f e2bd 1ab5 803c 2950 f5bd
00000130: dfeb 24be 306a e1bd 5913 803c 1ed1 f5bd
00000140: 4cd6 24be c07e e1bd 78ea 7d3c a990 f5bd
00000150: 0da7 24be ee39 e1bd 956d 7e3c fd3e f5bd
00000160: e140 24be 0b7f e2bd b6ca 7e3c 6942 f5bd
00000170: ef9e 24be a44a e1bd 9511 7a3c b15c f4bd
-0.16089493 -0.11015168 0.015537994 -0.119403124 -0.16090679 -0.1102084 0.015631406 -0.120336376
-0.16061193 -0.11028418 0.015512968 -0.11979171 -0.16090858 -0.110107854 0.015525033 -0.11995021
-0.16079676 -0.1097517 0.015580704 -0.11960503 -0.16064793 -0.11046291 0.015548498 -0.11951958
-0.16092066 -0.11046444 0.015601284 -0.11935162 -0.16070542 -0.11052765 0.015534249 -0.119845636
-0.16095568 -0.11033284 0.01555185 -0.11962218 -0.16088602 -0.110543184 0.015498069 -0.11926378
-0.16111843 -0.10998495 0.015453054 -0.11965063 -0.160819 -0.11009924 0.01558522 -0.11972903
-0.16039242 -0.11034176 0.01607492 -0.11980229 -0.16054997 -0.110191435 0.0153628085 -0.11974228
-0.1607845 -0.11049792 0.015320715 -0.119433455 -0.16071108 -0.110042855 0.015591282 -0.11936243
-0.16074522 -0.109974585 0.015854137 -0.119358696 -0.16094038 -0.110296324 0.01553479 -0.119497135
-0.1606551 -0.110503376 0.015711356 -0.1197818 -0.16105603 -0.11006582 0.015634226 -0.120027766
-0.16097373 -0.11010504 0.015497796 -0.11990482 -0.1607935 -0.10997377 0.015529056 -0.11974905
-0.16040374 -0.11059388 0.01555126 -0.11975557 -0.16076253 -0.11000565 0.015262981 -0.11931742

encoder.net.0.layer.weight f4 [64, 20]
00000000: 3184 9bbe f767 4c3e f273 a1be 3dcc 773e
00000010: 4b5c dbbe 468d e03e 09d1 353f 0d5a 443d
00000020: a04b 583e 14a1 55bf c1fb 063f 2f23 103f
00000030: 4e78 a43e 461f 5dbf 3f1f c43e 7fe6 463e
00000040: d1f6 453f f2f7 56be 84b3 84bb 377f 47be
00000050: 8e17 2f3e a360 383e 46a3 9dbe d349 6c3e
00000060: 3be7 163f aab9 d03e d9c6 1c3e e9b0 79be
00000070: fa56 db3e b99d 843e 0f07 c0be 83cb 803e
00000080: 4215 db3e 86a2 5c3f 2825 bfbd e003 093f
00000090: 257c cabe 4c0a 663f 1cb8 6c3e 33e6 283f
000000a0: d9c1 0d3f 523c 013e 5eac 4cbd b82c e13e
000000b0: 96ac a93e 271c 013f ab54 8b3f f42d 973e
000000c0: af7e 273f 1a5b 8e3e 19e5 953b 0222 123f
000000d0: 955a 033f 5af1 31bc 99a6 2fbe 4dcf 043f
000000e0: 77cb 88bf 0a2a 55bf 12c7 37bf c924 3ebe
000000f0: dcee a8bd 6fd5 dc3d d2d1 093e 17ec afbe
00000100: e8f0 9c3f 17ed 083d a5cc 4e3e 432c a13e
00000110: 764f 943e 44fc 86bd 15c3 a5be fbb3 2f3f
00000120: f8be 453e fb6a b53d a41c de3d b850 e53e
00000130: 4153 90bf 7a49 8abf 17b0 f43d 4a80 88be
00000140: 0585 fabe 6fb9 7abe 526e 453d 783a aebe
00000150: f526 2bbf 6022 a9be 1d96 3a3f 883d 583f
00000160: 8866 f83e f15a c33c 4679 1cbf d946 87be
00000170: d636 fd3e 7cfa 3c3e be08 b0be e67a 05be
00000180: 08bc bb3e 61df e13e 7b06 63bf 0571 40bf
00000190: 680a 5dbe 4a43 87be d1f6 0a3f 3bc5 a7bc
000001a0: c3f6 7a3e 2d8e 363f 5dd4 763e fb0c 91bf
000001b0: f645 39be e48f bf3e ebed cebe 213b 9dbf
000001c0: aac6 22bf 11c6 833e 7092 efbe 8915 9ebf
000001d0: 596e 38be 4aeb 8cbe 3f2e 1bbf b927 05be
000001e0: d19f fbbe 8dcb 19bf 6ab3 e23d 8610 ddbd
000001f0: f7a0 5f3e 5a4e b13e bb2e f83e 313a c33d
00000200: 5c12 97be 8280 4ebe 0e17 23be 43a6 89be
00000210: e340 0b3c bfd1 c03c 595b d13d 86a5 04bf
00000220: 626e 3d3e 51a4 eb3e 7534 e63e 6ada 33c0
00000230: 091a b4be f2ab 613e 1897 453e 4f57 933e
00000240: 6798 1dbe 142d a13e 888c 09bf 4b28 88be
00000250: 0684 1a3e 26fd f1be 7de4 0cc0 851b b33d
00000260: 8c85 bd3e 5667 64be a472 a3bf bc2d a3be
00000270: fdc6 f73e 1b71 9e3e 4d1c ae3d f1de 71bd
00000280: 1b07 95be fdc9 43bd 6556 fabc 38ba dabd
00000290: 4a74 87be b675 7a3e 762c e13e d8bb edbd
000002a0: f6e8 bdbd 021a 523f 4720 5c3f 0340 263e
000002b0: fe87 41be 4b0f 8e3f 3e2a 673f abde 153e
000002c0: 9383 633e aaf4 7a3f 5f8b 223e ac92 ee3e
000002d0: 72af b6bd 4cbb e23e 229f 643e 22b6 443d
000002e0: 77ce 643e 4ec9 74bf e6c0 2e3f 75e9 533d
000002f0: eb7a ce3e 2588 f73e 19c5 683f 4695 393d
00000300: fffb b73d dc7b ff3e ec89 493f 8206 de3d
00000310: d91e 6fbf 71d7 dcbb f335 4ebe 2036 963d
00000320: 8461 16bc 09ec cf3e 5187 74be 2c52 043f
00000330: 8b93 b13e 04b3 cc3e 4890 b7be f1f5 85bd
00000340: e082 2f3f d593 853f 2aae a73e 567e 893e
00000350: cb5f e93e ba0d 3f3f ce2b 923e 49b3 573e
00000360: aeb7 e5bd e7fb debe 504e bbbe 00a8 82bf
00000370: 3c02 f3be 14ec 22be cba5 fb3c e5e9 2fbf
00000380: a169 ce3e 7329 f93e 5724 a1be f4f2 88bf
00000390: d737 163d 9f99 14bf 6d90 503e b3fe a9bf
000003a0: d6fb a03e 12e0 22bf b00e d33e 0f37 6cbf
000003b0: 96c1 d43d 24ae e83e d6df a53e b495 ea3d
000003c0: 18d0 32bf d1a7 07bf 0c43 433e e888 38be
000003d0: 499f 90be dac0 ad3c 7686 d13e 2e1d 153e
000003e0: cdf3 00bd 3075 113f 0885 68be d446 8fbb
000003f0: afde a7bd 2f1e 503e bb11 cfbe 53e9 b53e
-0.30374292 0.19961534 -0.31533772 0.24199004 -0.4284385 0.43857783 0.7102209 0.04793744
0.21122599 -0.8344891 0.52727896 0.56303686 0.32123035 -0.86375844 0.3830509 0.19423865
0.77329737 -0.20993021 -0.0040497202 -0.19482122 0.17098829 0.18005614 -0.3078863 0.23075037
0.5894658 0.4076665 0.1531023 -0.24383892 0.42839795 0.25901583 -0.37505385 0.25155267
0.42789656 0.8618549 -0.09333259 0.5352154 -0.3954784 0.8985946 0.23117107 0.65976256
0.55373913 0.12620667 -0.04996907 0.4397943 0.33139485 0.5043358 1.0885214 0.29527247
0.6542768 0.2780388 0.0045744297 0.5708314 0.5131009 -0.010860765 -0.17153396 0.51878816
-1.0687093 -0.8326727 -0.7178813 -0.1856872 -0.08248684 0.10782897 0.13458946 -0.3435981
1.2261019 0.03342923 0.20195253 0.31479082 0.28966874 -0.065910846 -0.32375398 0.68634003
0.1931113 0.088582955 0.108453065 0.44788146 -1.1275407 -1.0803673 0.11947649 -0.26660377
-0.4892961 -0.244848 0.048200913 -0.34028983 -0.6685632 -0.3303404 0.72885305 0.8446889
0.48515725 0.023847075 -0.6112255 -0.2642124 0.494559 0.18454927 -0.3438167 -0.13035163
0.36666894 0.44115737 -0.88681763 -0.75172454 -0.21586001 -0.26418525 0.5428286 -0.020479789
0.24508195 0.71310693 0.24104448 -1.1332086 -0.18093094 0.37414467 -0.40415892 -1.228367
-0.6358439 0.2573705 -0.4679141 -1.2350322 -0.18010844 -0.2752326 -0.6061744 -0.13003434
-0.49145368 -0.6007622 0.11069377 -0.10794167 0.21838747 0.3463009 0.48473153 0.095325835
-0.29506195 -0.2016621 -0.15926763 -0.2688466 0.008499357 0.023537515 0.10222501 -0.5181507
0.18499139 0.460238 0.44961897 -2.810206 -0.35176113 0.22038248 0.19295919 0.2877755
-0.15390168 0.31479704 -0.5373006 -0.2659324 0.15089425 -0.4726345 -2.2014458 0.08745483
0.3701595 -0.22305045 -1.276936 -0.3187083 0.48394004 0.30945668 0.08501492 -0.059050504
-0.29106984 -0.047800053 -0.030558774 -0.1068005 -0.2645591 0.24458966 0.43979234 -0.11608094
-0.092729494 0.82070935 0.8598675 0.16235356 -0.18899533 1.1098417 0.9029883 0.14635722
0.2221816 0.9802958 0.15873478 0.46596277 -0.08920182 0.4428352 0.2232633 0.048025258
0.22344385 -0.95619667 0.6826309 0.051736314 0.40328154 0.48346058 0.9092575 0.045308374
0.08983611 0.49899185 0.7872608 0.10841085 -0.93406445 -0.00673955 -0.20137767 0.07334542
-0.009178523 0.40609768 -0.23879744 0.51687884 0.3468288 0.39980328 -0.35852265 -0.0654105
0.68559074 1.043574 0.32750064 0.268542 0.45580897 0.7463032 0.28549045 0.21064486
-0.11216675 -0.4355156 -0.36583185 -1.020752 -0.47462642 -0.15910369 0.030718705 -0.6871627
0.40314963 0.48664436 -0.31473038 -1.0699143 0.036674347 -0.5804691 0.20367594 -1.3280853
0.31442136 -0.63623154 0.41222143 -0.9227151 0.10388486 0.4544536 0.32397336 0.11454335
-0.69848776 -0.5299044 0.19068545 -0.18020976 -0.28246525 0.021210123 0.40922898 0.14561912
-0.031482507 0.5681944 -0.22706997 -0.004372457 -0.081967704 0.20324014 -0.40443215 0.35529575

encoder.net.0.layer.bias f4 [64]
00000000: 70ab 7e40 28a2 803d da61 bbbe 89a5 5a3e
00000010: 443d 4240 e29b a33e bb3b aa3f 40f3 233f
00000020: b5aa 5f3e b702 c3be 4d02 4ebe fe1f 313f
00000030: e578 5f40 a24e 8640 d24d 183d 1087 be3e
00000040: 1d12 8a3d acc1 c1be e4d3 4140 eea3 b93f
00000050: 468b 4c3f 93a9 923d 76f7 b83e 9c7b 183f
00000060: 92bc 5740 66d3 333f 0621 e33d 71e2 913e
00000070: 3889 e4bd eac1 383f f90a 0abf fda0 493e
00000080: f8e9 973e 7314 a23f 24ce 433d 11c7 1c40
00000090: ed7c a93f ea35 4f40 cac5 3a40 6233 c3be
000000a0: cde7 b13f 05dc 8abe 32ac 533d cde4 2d40
000000b0: 03cf 6f40 26f7 ae3e c141 a3be b74d 713e
000000c0: 2377 553f 25b5 15be 04de edbc 6051 23bf
000000d0: 2d8f 1bbe 501f 3e3d 2399 7c40 3eff 65bb
000000e0: 540f 0fbf 5acc f63e 221f 973e 977e 5740
000000f0: 6be6 b5be 6b66 05bf 322d 8140 d740 5c3f
3.9792137 0.06280929 -0.36598092 0.21352209 3.0349894 0.31954867 1.3299478 0.64043045
0.21842463 -0.3808801 -0.20118065 0.6918944 3.4917538 4.1970987 0.03718359 0.3721242
0.06741736 -0.37843072 3.0285578 1.4503152 0.79900014 0.0716125 0.36126298 0.5956361
3.3708844 0.70244443 0.11090283 0.28493074 -0.11158985 0.7217089 -0.5392299 0.19690318
0.29670691 1.2662491 0.047804013 2.44965 1.3241249 3.2376657 2.918322 -0.3812514
1.3898865 -0.27120987 0.05167789 2.71709 3.74701 0.34172934 -0.31886104 0.23564802
0.83384913 -0.14619882 -0.02903653 -0.63796043 -0.15191336 0.04641658 3.9468467 -0.0035094763
-0.55882764 0.48202783 0.2951594 3.3671014 -0.35527357 -0.521094 4.036767 0.8603644

encoder.net.0.bn.weight f4 [64]
00000000: 1b32 b03f a782 883f ebbe 873f 042b 2e3f
00000010: 0429 743f 90f4 853f 1a1c 583f 4740 8f3f
00000020: 5872 913f 9049 403f 86a5 9b3f 54ca 9f3f
00000030: cad4 aa3f 5a8f be3f 18e6 6e3f 1e0f 6f3f
00000040: af8f 583f f88c 3f3f 1401 933f 95ee 953f
00000050: d4c5 3d3f a83b 8b3f 6e8c 6d3f a3dc b93f
00000060: adf3 953f f467 5c3f dd4e 323f d351 823f
00000070: 7d38 b23f 8f79 5b3f ac9b 823f 544f 8a3f
00000080: aadc 843f b3f7 933f f43e 583f 7eeb 823f
00000090: 4bfc 823f 6f86 7a3f b2a8 653f a013 863f
000000a0: fbb3 f43e 2c71 e63e 5dbb 643f 7aeb 863f
000000b0: c0f4 9b3f 248c 893f df24 7a3f d630 8a3f
000000c0: 0594 043f 46b6 cb3f cb45 ba3f 23cd 293f
000000d0: 0a97 813f eca5 4f3f 4bf3 8a3f 9f5d 6e3f
000000e0: 3a9e 563f b658 1f3f 384f 903f 9aba 9a3f
000000f0: 4aa8 893f 002c 4c3f 9435 a83f 14c1 3d3f
1.3765291 1.0664872 1.0605139 0.68034387 0.95375085 1.046526 0.8441788 1.1191491
1.136302 0.7511225 1.2159889 1.2483621 1.3346188 1.4887497 0.93319845 0.9338244
0.84594244 0.74824476 1.1484704 1.1713434 0.74129987 1.0877581 0.92792404 1.4520458
1.1714989 0.8609612 0.69651586 1.0181221 1.3923489 0.8573236 1.0203757 1.0805459
1.0379841 1.1559967 0.8447106 1.0228117 1.0233244 0.9786138 0.89710534 1.0474739
0.47793564 0.45008218 0.89348394 1.0540612 1.2184067 1.0745893 0.9771251 1.0796154
0.5178836 1.5915 1.4552549 0.6632864 1.0124218 0.8111255 1.0855497 0.93111604
0.83835185 0.6224474 1.1274176 1.2088196 1.0754483 0.7975464 1.3141351 0.7412274

encoder.net.0.bn.bias f4 [64]
00000000: 9ce8 f6bc 8dec f83e d54c 113f 5084 c7be
00000010: a888 d5bf 3b52 b63e 82ad c3bf 806f d7be
00000020: cde0 d23f bddc ff3e eaa5 e0bd 6e79 543f
00000030: ae81 8dbf b9a7 873f 0c51 5abf d4c9 303f
00000040: 95a9 983f 823e 08be 487d d33f 102b 433f
00000050: 2c0e 453e 1df1 10bf 0a4a ce3f 653f f53f
00000060: ab78 dfbe c15b ca3e 15eb ca3e 4975 c13f
00000070: b787 a5bc 1c64 b6bf a538 833f b9a8 933f
00000080: 49aa 113f 4ffc 9f3c 2934 223e 4c32 663f
00000090: 8777 02bf 96a4 30bf cc17 46bf 0919 f3be
000000a0: 99bc b33e 15dc d03d 24ec 4e3e 2106 1e3f
000000b0: dd69 d7bf 6073 60bf 8df3 9539 f763 713f
000000c0: 64a2 31bf 5591 923f 9315 e53e fb3a 0b3f
000000d0: 8b55 58bf adbf 38bf 34d7 6a3e 9bba 023f
000000e0: 04c5 eabc d019 c03e e7aa 243f 62ce 05c0
000000f0: 7c07 89bf b94b 803f 4f4d 94bf 9a16 763f
-0.030140214 0.48617974 0.5675786 -0.38968134 -1.6682329 0.35609612 -1.5287325 -0.42077255
1.6474854 0.49973097 -0.109691456 0.82997787 -1.10552 1.059806 -0.8527992 0.69057965
1.1926752 -0.13305095 1.6522608 0.76237583 0.19243687 -0.5661791 1.6116345 1.9159971
-0.4364675 0.39523128 0.39632478 1.5113918 -0.020206315 -1.4249301 1.0251662 1.1535865
0.5690046 0.01952949 0.1584021 0.89920497 -0.50963634 -0.6900114 -0.7738006 -0.47480038
0.35104826 0.10198227 0.20207268 0.617281 -1.6829182 -0.8767605 0.00028600954 0.9429316
-0.69388413 1.1450602 0.44743022 0.5438687 -0.8450553 -0.72167474 0.22933656 0.5106599
-0.028658397 0.37519693 0.64323276 -2.0907216 -1.0705409 1.0023109 -1.1586093 0.9612824

encoder.net.0.bn.running_mean f4 [64]
00000000: 7526 7d40 ae80 963f 0327 763f c694 7d3f
00000010: 0df3 4d40 d594 ce3f 060d ec3f b6dc eb3f
00000020: 0ab3 d53f 915a 5c3f 35a7 953f 50f0 c03f
00000030: 9d09 6d40 9d81 8a40 24af 653f 53f5 983f
00000040: 9074 6e3f 6672 6c3f c1db 4c40 9657 f83f
00000050: 49dc c63f f9a4 bb3f 4c91 9a3f ad9d 0240
00000060: 8b1f 6440 ec6d aa3f c1f7 053f edff 9d3f
00000070: dc3c 8d3f 2868 d13f 594c 8e3f 4f8b 8b3f
00000080: e39c 993f ec9c e03f 3e36 803f 1620 2640
00000090: f755 f23f 3600 5440 25dd 4d40 37e7 663f
000000a0: 1dfb c43f 5f77 5d3f d003 863f 75b4 3b40
000000b0: 06f0 7a40 1857 c23f 56f5 453f cd1f 893f
000000c0: 8eae 9a3f 08cf 9e3f dbb3 b73f d53b 3d3f
000000d0: 2e63 ab3f 4c75 a83f 490b 8240 7bdf 713f
000000e0: c8f7 2b3f adfc 463f 2979 b63f 2d9d 6440
000000f0: ec44 a23f 7cff 353f ba7c 8740 e83a c33f
3.9554722 1.175802 0.9615328 0.99055135 3.2179596 1.613917 1.8441474 1.8426731
1.6695263 0.86075693 1.1691653 1.5073338 3.7037117 4.328322 0.8972037 1.1949867
0.9314661 0.9236206 3.2009127 1.9401729 1.5535976 1.4659721 1.2075591 2.0408738
3.5644252 1.3314795 0.5233117 1.2343727 1.1034198 1.6359911 1.111705 1.0901889
1.2001003 1.7547889 1.0016553 2.5957084 1.8932484 3.3125129 3.2166226 0.90196556
1.5389134 0.8651027 1.0469913 2.9328892 3.9208999 1.5182829 0.7732748 1.071283
1.208452 1.2406931 1.4351763 0.7391942 1.3389642 1.3160796 4.0638776 0.9448163
0.6717496 0.777293 1.4255725 3.5720932 1.2677283 0.71092963 4.2339754 1.5252352

encoder.net.0.bn.running_var f4 [64]
00000000: 892e 1d40 72ef eb40 a84f b340 a8aa 5f40
00000010: 78b7 873f 27f6 9340 2299 ce3f 4ed1 ba40
00000020: 645d 4941 b5a2 9840 ef90 e740 5b46 5840
00000030: f72e a43f e261 9b3f 3b41 9240 fb37 b640
00000040: 1e9b 9340 f26d 2c40 d75c 963f f79c 2f40
00000050: dbd3 f140 5c55 a740 8abe 5240 0f0a 0341
00000060: dd90 7c3f cdc0 3340 2a6e 403f ba36 7240
00000070: 2ec1 fb40 1c04 4b40 99f5 1541 e611 2840
00000080: 4321 4c40 1b7f 1d40 b9be 0040 17af a43f
00000090: 4f97 1a40 bb1f 6f3f cdae 8d3f 6e99 bb40
000000a0: ef44 473f 0c64 9c40 62d1 1d40 cdb8 a73f
000000b0: 027c d53f 2394 8840 1844 8040 5c3c 0b40
000000c0: d0c8 b33f f13f f840 8c2f 1841 8a80 9540
000000d0: ecb8 9540 55e6 8040 d17f c83f 67c5 1440
000000e0: ece1 6440 682b 9c3f a024 6c40 28b2 783f
000000f0: 93d3 1041 65aa 8540 bf8f 843f 502d ae40
2.4559653 7.372979 5.6034737 3.494791 1.0602865 4.623798 1.6140482 5.83805
12.5853 4.7698617 7.236442 3.3792942 1.2826833 1.2139246 4.5704627 5.6943336
4.612685 2.6942105 1.1747082 2.7439554 7.5571113 5.22917 3.2928796 8.189956
0.98658544 2.8086426 0.75168097 3.7845902 7.8673315 3.1721258 9.37246 2.6260924
3.1895301 2.460883 2.0116408 1.2865933 2.4154851 0.9340779 1.106897 5.862479
0.7783956 4.8872128 2.4659047 1.3103272 1.6678469 4.268083 4.008312 2.175559
1.4045658 7.7578053 9.511608 4.671941 4.6788235 4.0281167 1.5664006 2.3245485
3.5762892 1.2200747 3.6897354 0.97146845 9.051654 4.17705 1.0356368 5.4430313

encoder.net.1.layer.weight f4 [48, 64]
00000000: 1d7f 84be a04d d33e a3eb 993e 6ded b33e
00000010: f299 51bf f8d8 4f3f a105 9abd b5b3 053e
00000020: 8f66 0b3d 76ba 633d be55 38bb 1a08 0c40
00000030: 715f 8abf 968a c73f d77e 2c3d d7c5 293e
00000040: e8fe 01bf d183 1fbe cf18 6abc ec31 22be
00000050: 4273 8b3e dac8 023e 64c6 1a3e c9ea 00be
00000060: db93 b5bd 8c6d 5ebe 38f2 913c 271b 8f3d
00000070: 0114 4bbf 9a0a 053e 5b2c cf3e 3a32 033f
00000080: 3fbf c43e 3ab2 c83e 48db 923e d315 43bd
00000090: 3e51 e23d b036 9fbe 9c37 4dbd ff70 3d3e
000000a0: 6fa3 4f3e b6ab e63e e9c0 cb3e f08f 063e
000000b0: 3fcb b83e 8161 23bf 61ce 883e 03f6 a23e
000000c0: c1e8 b4be 2567 67be cdb3 a9be 648d 9fbf
000000d0: 9c03 d03e 26ed 9b3d d7b7 01be ba53 fbbd
000000e0: 970e 97bd e81e 303e 0d40 43be 605e 91be
000000f0: 3829 7d3e 9202 b3bd 90cf 823e e110 063f
00000100: 8f3b b2bd 0c65 34bd e21e eabe f5cc e4be
00000110: 2267 6bbd f6e3 4dbe 6584 0abf b098 31bf
00000120: 2e74 073f 7459 643e ad72 0bbd d7bb 353e
00000130: 4538 2fbf e3f1 46be 45be 5fbf 4064 2a3e
00000140: 015c b73e ac18 45bd 6770 1840 ec09 94bd
00000150: c01a 12bc cb95 aebe 6f76 af3e cdcf bd3e
00000160: 5369 1cbf e063 dd3e 0a36 c23e 927c f53e
00000170: dda2 e53d 51a1 0ebf 8379 d33d 1e04 1a3e
00000180: 4b85 9dbe 656f f5bd 48cc 733e b877 363f
00000190: 1603 4fbf 2a1d 013f 38fa 44be de6e 09bf
000001a0: 2136 fd3e d475 14bd a11c 5f3c f6af f53e
000001b0: 80f8 683c f959 513c fddd 2b3d 7c0f db3e
000001c0: 8142 1f3e cc75 aa3e 3bea d1be 1e81 023f
000001d0: 60dd 01bf 0c1f 0b3e a627 a43d 8fc9 0a3f
000001e0: 75c7 ff3d 829b cbbd 5126 2bbe db6c e43d
000001f0: 18bc 16bf 16f7 0bbd 6783 f23e 67a2 d73d
00000200: 9d5f 963f 8490 23be d8a1 cfbe c077 75bf
00000210: 0d9e a33e 8b1d 063e 42f3 0e3f d142 32be
00000220: 0fb7 2d3f 95cb 10bf 94e5 ab3d 3a4b 593e
00000230: de97 d8be 1d76 acbc 7faf e33c dd72 a63f
00000240: b3aa 6fbe 53b0 85bf c956 bbbd a9ec c63d
00000250: d97e d13f 35cb bfbd edb3 27be 1735 1bbe
00000260: 8553 273e 6c0e f43d 4857 06bf 8ad4 e4be
00000270: 89e8 123e 575a 12bf c40d 3c3f 0c51 60be
00000280: 0753 2ebf b453 30bf 3473 42bf 7015 5b3d
00000290: f7be 14bf f1ae 7abe 589f f23e fd03 4e3e
000002a0: f312 99be a561 0e3f ed1f 103f 367b 93bd
000002b0: 87ba 49bf b3b7 01bf 9dab 18bf 3e55 eebd
000002c0: 92fe b83c da2f 093f 10d1 c4be 61ad 8abe
000002d0: 1764 8bbe bbcf 80be b686 3f3e 8648 75bf
000002e0: dbc7 943e b428 503e 209f f1be 5436 983e
000002f0: 15b8 2bbe 33bc 1d3e c4e5 f0bc 4941 efbe
00000300: 2653 8abe 3a75 47bd dff4 8fbd 5000 0a3e
00000310: 60be 853e b4de a33e 3ed6 ba3e 6433 9bbe
00000320: a3cf 95be f77c 7cbe c0e9 be3f bea7 cebe
00000330: cdf8 1e3e 188e 713e 9f9f 993e 29d7 f13d
00000340: 50a4 09be 0b03 f3bd 247f 003e 86da 2abe
00000350: 0365 acbe 353e 9abf 4897 e3bf 935f 88c0
00000360: c7d2 30be 78d4 54be 5f6f f0bd 47e3 e7bf
00000370: 43b3 d5bd fa33 a43e 7437 7f3d f8a3 b73d
00000380: 4917 44bf 4eaf 14bf db49 9dbd 0a55 59be
00000390: 93a7 9c3e 267b b53e 68f8 8f3c 88e1 c93e
000003a0: 4fb9 f23d 264b e3bd d1b4 07bd e3c4 c4bd
000003b0: 66e2 59be b884 36bf e4b3 76bd 188a 20bf
000003c0: bc64 323e c914 fc3c 7587 3b3d 812a 1fbe
000003d0: 93fd 67bf 48b3 a73e 0fb2 23bd ddef 8b3c
000003e0: 76c4 5f3e 3828 04be 21a5 533e b48d 1f3f
000003f0: 03b3 cabd d8be 0ebe 5ab0 30bd 9bbe 5e3e
-0.2587823 0.4127016 0.3006259 0.3514208 -0.81875527 0.81190443 -0.07520605 0.13056834
0.034033354 0.055597745 -0.0028127278 2.1879945 -1.0810376 1.5589168 0.04211315 0.16579376
-0.5077958 -0.15577628 -0.014288141 -0.15839356 0.27236372 0.12771931 0.15114743 -0.12589563
-0.08866092 -0.21721476 0.017815694 0.06987601 -0.793274 0.12992325 0.40463528 0.51248515
0.3842716 0.39198476 0.28682923 -0.047628235 0.11050652 -0.3109641 -0.05010186 0.18500136
0.20277189 0.4505288 0.39795616 0.13140845 0.36092564 -0.63820654 0.26719955 0.31828317
-0.35333827 -0.2259794 -0.3314499 -1.2465024 0.40627754 0.07613592 -0.12667786 -0.12271829
-0.0737583 0.1719929 -0.19067402 -0.28392315 0.24722755 -0.087407246 0.25548983 0.52369505
-0.08702766 -0.04404168 -0.45726687 -0.4468762 -0.057471402 -0.20106491 -0.5410827 -0.6937361
0.5291165 0.22299749 -0.03404491 0.17747436 -0.68445235 -0.1942821 -0.87399703 0.16639805
0.3581238 -0.048119232 2.3818605 -0.07228455 -0.0089175105 -0.34098658 0.34270045 0.37072602
-0.6109821 0.4324026 0.37931854 0.47946602 0.11212704 -0.557149 0.10325911 0.15040633
-0.30765757 -0.119841374 0.23808396 0.71276426 -0.80864084 0.50435126 -0.19236076 -0.53684795
0.4945536 -0.036245182 0.0136176655 0.4798581 0.014219403 0.012777799 0.04195975 0.4278525
0.15552713 0.33292997 -0.40999016 0.5097827 -0.50728416 0.13586062 0.08015375 0.54213804
0.12489215 -0.0994177 -0.16713835 0.11153575 -0.5888076 -0.034171186 0.47365877 0.10529023
1.1747929 -0.15973097 -0.40553164 -0.9588585 0.3195652 0.13097207 0.5583993 -0.17408301
0.6785745 -0.5656064 0.08393398 0.21220103 -0.42303365 -0.021052415 0.027793644 1.3003803
-0.2340496 -1.0444435 -0.09147412 0.09713108 1.6366836 -0.093649305 -0.1637723 -0.15156971
0.16340454 0.11916813 -0.5247693 -0.44693404 0.14346518 -0.571691 0.73458505 -0.21905917
-0.6809544 -0.6887772 -0.75957036 0.05348724 -0.5810389 -0.24480797 0.47387195 0.20118709
-0.2989727 0.55617744 0.56298715 -0.07201235 -0.78800243 -0.5067093 -0.5963686 -0.116373524
0.022582326 0.5358864 -0.38440752 -0.27085403 -0.272248 -0.25158486 0.18703732 -0.95813787
0.29058728 0.20328027 -0.47191715 0.2972895 -0.1676944 0.15403824 -0.029406436 -0.46729496
-0.27016562 -0.04869578 -0.07029127 0.13476682 0.26121807 0.32005847 0.3649158 -0.30312645
-0.29259977 -0.24657045 1.4915085 -0.40362352 0.15524597 0.2358936 0.30004594 0.11808617
-0.13441586 -0.11865815 0.125485 -0.16684923 -0.33670816 -1.2050234 -1.7780542 -4.261667
-0.17267905 -0.20784175 -0.11739992 -1.8116235 -0.10434582 0.32070905 0.062308744 0.089668214
-0.7659803 -0.58079994 -0.076801024 -0.21223846 0.305966 0.35445517 0.017574504 0.3942988
0.11851751 -0.11098318 -0.033131424 -0.09607866 -0.2127777 -0.7129626 -0.06023015 -0.62710714
0.1742124 0.03077163 0.04578348 -0.15543558 -0.906213 0.32753968 -0.03996473 0.01708215
0.21852288 -0.12905967 0.2066846 0.62325597 -0.09897425 -0.13939989 -0.043136932 0.21752398

encoder.net.1.layer.bias f4 [48]
00000000: dccd b53e d52f a040 6c7e 6abe a4dd e5be
00000010: 6897 bdbd 51a3 a940 43a1 95bd cb8e 483e
00000020: 33e9 1fbf 72bd c03e f241 f53e a08d dabd
00000030: 09f2 89be 1490 b4be 7401 833e c36a 9140
00000040: 3841 7d40 82e1 363e 3b26 3d3e becb 9ebf
00000050: ccf3 3b3f 826e c3bd 6ce1 1e3f 8a09 14be
00000060: d9bb 8b40 2515 173f ac60 9a3f e8c4 03bf
00000070: 227f 5b3f ba5a c93e 9d1a 843e ef2b 09be
00000080: d12b febd f01b 3b3e 1424 a93d 5006 073e
00000090: 2bb9 3f3f 923d 9bbe 470a b13e 93b3 e73d
000000a0: 4f23 74bd 5b05 9d40 ae09 9fbe 5ddf a2be
000000b0: fd0f cdbd cbfd 913d c9fb a340 636c 4f3e
0.3550862 5.005839 -0.22899789 -0.4489566 -0.09257394 5.301186 -0.07306149 0.19585721
-0.6246521 0.37644535 0.47901875 -0.10671544 -0.2694247 -0.35266173 0.25587046 4.5442824
3.9571056 0.17859462 0.18471615 -1.2405927 0.7341888 -0.09542562 0.62062716 -0.14456764
4.3666806 0.5901664 1.2060752 -0.5147233 0.85740864 0.3932703 0.25801554 -0.13395666
-0.12410701 0.18272376 0.082588345 0.13186002 0.7489192 -0.30320412 0.34578153 0.11313548
-0.059603985 4.9069037 -0.31062073 -0.31811038 -0.10012815 0.07128485 5.1244855 0.2025619

encoder.net.1.bn.weight f4 [48]
00000000: c875 9d3f ef47 ab3f e98d 583f a158 833f
00000010: b7fe 813f 5555 b03f c75d 463f 56f7 603f
00000020: 6f4c 373f 3890 5e3f 4d08 7a3f bedc 6f3f
00000030: 8bc2 893f cc2c 5c3f 750e 7d3f e6d5 9c3f
00000040: d853 793f 0482 bd3f 4de6 623f 1ec9 333f
00000050: e41e 973f d40f a03f fc51 243f 7496 5e3f
00000060: 0a03 ab3f 85cf f03e 802c 7a3f 6628 153f
00000070: b3ef a73f f26d a43f 7ba7 6a3f dfb0 ba3f
00000080: 0e3e 863f 3d50 4d3f 307c 6b3f 1fd8 9f3f
00000090: 8754 323f 5dea 0e3f 83c2 573f e9d4 8c3f
000000a0: ac60 073f 168b 903f 0e21 783f 6704 8e3f
000000b0: b6a8 893f d464 4c3f 609c a33f 4274 883f
1.2301569 1.3381327 0.8459154 1.0261422 1.0155858 1.3776041 0.7748684 0.87877405
0.71601003 0.8693881 0.97668916 0.936962 1.0762495 0.86005855 0.98850185 1.2252777
0.9739356 1.4805303 0.8863266 0.70228755 1.1806302 1.250483 0.641876 0.86948323
1.3360302 0.47033325 0.9772415 0.5826477 1.3120025 1.2846053 0.91661805 1.4585227
1.0487688 0.8020056 0.9198637 1.248783 0.6966023 0.5582636 0.84281176 1.1002475
0.52881885 1.1292446 0.9692544 1.1095093 1.0754611 0.7984135 1.2782097 1.0660479

encoder.net.1.bn.bias f4 [48]
00000000: c9c3 0e3f 6d98 06c0 2aa0 a03f f1f1 253f
00000010: d102 893f b9f3 4c3f ef42 8abf 1d92 a83f
00000020: 18ec a53f 20e3 cabd 9773 523f a537 5cbf
00000030: ecd6 673f 225f 2a3f 391b 363f 54a0 aabf
00000040: 2a31 7c3e 38f8 02be 6b26 893f 8c0d 143c
00000050: 9e57 f6be 75f5 ba3f 16d1 c03e 7e1d 223f
00000060: 41f4 973f d514 96be 1aa6 553f 0ed3 92bd
00000070: e3dd 143f 8983 443e ce1c 173e c5c8 2abe
00000080: 51f1 1dbf 5d8a 8b3e 3c1d b3bf 85f2 c73f
00000090: 58ad 493f 5274 dfbf 7c29 a2be d286 1cbe
000000a0: b68f d03f 13bc bf3d 4b36 cfba 0368 9bbf
000000b0: a151 3dbf 5ce7 523f 468d ab3f cefd 413f
0.55767494 -2.1030533 1.2548878 0.648223 1.0703984 0.8005939 -1.0801677 1.316959
1.2962675 -0.09906602 0.82207626 -0.86022407 0.9056232 0.6655141 0.7113529 -1.3330178
0.2462813 -0.1279 1.0714849 0.009036433 -0.48113722 1.4606158 0.3765952 0.6332625
1.1871415 -0.2931277 0.83456576 -0.07169162 0.5815107 0.19190802 0.14757082 -0.1667815
-0.61696345 0.27254 -1.3993297 1.5620886 0.78780127 -1.7457373 -0.31672275 -0.15285805
1.6293857 0.09362044 -0.0015809027 -1.2141117 -0.7395268 0.82384276 1.3402488 0.757779

encoder.net.1.bn.running_mean f4 [48]
00000000: 523e fd40 a77d 9a41 7f0d 7d40 6264 4ec0
00000010: 3f83 3340 c835 8d41 9576 1640 6433 9940
00000020: 90a9 123e 57ee e940 b758 ed3f e3fe 7440
00000030: f36f 823e 4104 0e3f 76a9 7a40 124c 8641
00000040: 8020 5941 32e0 11c0 f59a 363f ff7e 03c0
00000050: ad25 5740 45d0 1b40 aab6 1441 91de f83f
00000060: e04c 9b41 1a3f 953f 1a2d 3241 7bed 03bf
00000070: b5ec 5c41 b41f 3dbd f633 c440 215f 2cc0
00000080: 387d db3f 0951 0e41 790b e93f b249 2040
00000090: f816 a540 2d90 4640 bb25 1140 68a6 3340
000000a0: 9a40 7740 1069 8041 323b 03c0 10af 7840
000000b0: 86a2 2140 beec a340 4869 8541 ca85 8140
7.9138575 19.311354 3.9539487 -3.2248769 2.8048856 17.65126 2.3509877 4.7875233
0.14322495 7.310344 1.8542699 3.828057 0.25476035 0.5547524 3.916593 16.787144
13.570435 -2.2793088 0.71330196 -2.0546262 3.3616745 2.4345868 9.294596 1.9442922
19.412537 1.1659882 11.136011 -0.5153424 13.80779 -0.046172813 6.131343 -2.6933062
1.7147589 8.894784 1.8206626 2.504498 5.159054 3.1025498 2.267928 2.8070316
3.863318 16.0513 -2.050488 3.885685 2.5255446 5.122649 16.676407 4.0475817

encoder.net.1.bn.running_var f4 [48]
00000000: 0eec 3842 35fd c841 53d3 5a42 e672 3f41
00000010: 4d33 ea41 8b5d d241 94d7 4042 28c6 1442
00000020: 83b7 5e41 55d9 7242 785b 5742 4aa3 6742
00000030: 8ee3 f641 7f7e af41 2209 f441 96ad e041
00000040: 8f36 b241 1fc6 b640 a882 3741 b0a0 0c40
00000050: afed b441 fb5f 0f42 1602 ad42 ed63 2042
00000060: bbd0 0e42 5f7d 8a41 b3d1 0b42 0bdf 1941
00000070: 181a a142 1369 ed41 16b3 0c42 8615 c441
00000080: d4cd 0542 738a 2642 c910 aa41 6857 3b42
00000090: d0fe c341 a74e 1342 3445 d241 e96d 1442
000000a0: 726e 7a42 ef98 0f42 f8c8 9641 fa96 fc41
000000b0: 3370 0c42 7c0c 2242 f2d2 c041 592b ec41
46.230522 25.123636 54.70637 11.965551 29.27505 26.295675 48.210526 37.193512
13.919803 60.71224 53.839325 57.909462 30.86111 21.936766 30.50446 28.084759
22.27664 5.7116847 11.4693985 2.1973076 22.616056 35.84373 86.504074 40.097584
35.70384 17.311216 34.954784 9.616954 80.550964 29.676306 35.17489 24.51051
33.451004 41.635204 21.258196 46.835358 24.49942 36.82681 26.28379 37.107334
62.607857 35.89935 18.84813 31.573719 35.10957 40.51219 24.103 29.521166

encoder.net.2.layer.weight f4 [32, 48]
00000000: 0bfb 833e 714a f13e 5176 2bbf 73d3 87bd
00000010: b710 9cbe a298 17bf 65b6 203d 886c f43e
00000020: 4410 5a3e c082 983e 933a d9be 83ce 383f
00000030: 041e e1be 417f d7be 6884 153e 85c7 6b3f
00000040: a616 343f 703c 1f3f 77b2 69bf 4fb7 09bf
00000050: 3a54 16be 462b 05be 6c61 623f 69c3 c3be
00000060: 52f6 e03e 925d 8dbe 9d93 fd3e 0897 27be
00000070: cb84 ffbd 62bd fcbe 48e3 443f e48a c2be
00000080: fd42 3ebe 74e9 0bbe 6e9b 263f 0350 61bf
00000090: 0af0 943e c6b1 123f cb54 28bb 5d8d 46bf
000000a0: f9e3 54be 4db1 fe3e 07c3 9cbc 0f33 623f
000000b0: e2ab 9ebe 4e22 623f 4cd7 14bf 2a5e 453e
000000c0: 4aa7 a1be d356 86be f892 9f3e 3341 033f
000000d0: 08ee 523f 0d5b 9dbe 9796 14be 7a83 d23e
000000e0: 413d ca3d 57d4 733f 95ea 8d3e 96f5 17bd
000000f0: 4d7c e13d f209 f43e ef74 93be 9dd4 d0be
00000100: d066 67be 8d30 b1be 3996 27bf 4adc f73e
00000110: 06f1 93be f372 b5bd 9f84 513f 967b b33e
00000120: 754c fb3c bf17 283f 757e 19bf 07b7 253e
00000130: 6dd7 e6be fb6f 4ebf e77a 07bf f137 83bf
00000140: d8ea 47be 7176 433e 2492 15be 017e dcbe
00000150: e452 913c 18d5 df3d 472d f3bd 6e61 1abf
00000160: 2411 a53e 84cb 1b3d 2ff3 a0bf 2e02 0f3f
00000170: e31e b73e 2429 113d ef0f ddbc 3ba6 a03d
00000180: c122 ab3e 7625 193f 5cff cdbe ea32 51bf
00000190: 227d e8be d826 813e 2caf d4be bb5e 673f
000001a0: 3c3d e43e af74 18be 7213 77bf 570d 45bf
000001b0: 6b88 57bf 45d9 a6be 9a9a b73e 9f58 cebe
000001c0: 6b32 2cbf 7233 163f 86a4 19bd e1ce 46be
000001d0: 3ab8 163f 8386 56bf 37f8 ffbe 3cb4 51be
000001e0: 0f72 4b3e 1bc9 1f3d 6f7b 0f3d f0d3 d9bd
000001f0: 8cc9 1d3f ea71 5f3f d9e3 d23e 772c a93f
00000200: 799c 2abf cec1 09bf 32a7 333f b15c 853f
00000210: b627 943e ec67 4ebe d36e 3a3f 13d4 593f
00000220: 56d2 06bf 33fb 813e 1795 a33e 0c7a f83c
00000230: fbd7 16bf 6784 383f 319a debd 8c4c f53e
00000240: 38e6 59be 1be9 6cbf a5f9 a1bf 8a10 cdbc
00000250: edd3 b6bd 244f b0be 5ca9 df3c 306a 95be
00000260: 6abb 523f 5de9 02be 72bb 9f3d 829b 9b3f
00000270: 9427 3e3f 44f9 0e3f 4545 a1bd 119f a13e
00000280: 9096 d13d b5ec 603e 2a94 153f 1dd2 793e
00000290: d272 873f 2b19 74bf 3b35 9cbe 62a1 7d3e
000002a0: 466d 69be f19d 5b3e 3953 b0be a8e0 89bd
000002b0: a3d7 843e f3dd 653d 457a 193f 5bdf 993e
000002c0: 2bfc 013f 9cd6 0a3e ab46 9d3f e4af 92be
000002d0: 329d 42bd e3b1 0f3e ce4f 21bf 692f 51bf
000002e0: d28b fe3e 998b 1cbe 0350 053f da2b 02bf
000002f0: 4891 d73e 9b3f 07be cb41 b23e 6856 0cbf
00000300: 421e 8bbe b232 12bf 2adf 96bd 5f5d c9bd
00000310: 7bbb 573e a10d e0bc d7f9 e7be 694d 0f3f
00000320: 2ab8 cf3e 09d4 8f3e 183a c1bd 8d39 2e3e
00000330: aa92 8d3e fe73 293f 99c8 f23e b81a 093e
00000340: 2a52 21be 788f 00be 131f af3e 974f 9bbe
00000350: 70fc edbe 260c bd3e f762 803c 7219 0e3f
00000360: ce46 06bf 2741 943e fe8a 283e 5ba1 283d
00000370: 6d4b 363e fdf4 5f3d 4df7 ae3e 7e4a 493d
00000380: 185b aebd 82fa 883e 34c7 893e 66bd 313e
00000390: d29d 2a3e 8879 b73e 03cd f43d 4432 53be
000003a0: e06b 1f3e 06a4 853e cf23 cbbd 517f 8fbe
000003b0: 78b1 1dbe 5f16 663c 2b37 843d 16e8 9b3d
000003c0: fb2d 74bc 4e37 ed3e 86a2 423e 5d38 a1be
000003d0: 54c9 af3e 75d9 efbe 912b eb3d cf82 573e
000003e0: 4911 7dba 8af6 013f 3935 6dbe 4a0b 87be
000003f0: c7a7 59bc 2ba1 f53d 22f2 6b3c 551c 133e
0.25777468 0.47127107 -0.6697741 -0.066321276 -0.30481502 -0.59217274 0.039236445 0.47739053
0.21295267 0.29787254 -0.424275 0.7219011 -0.43968213 -0.42089275 0.1460129 0.9210132
0.7034706 0.62201595 -0.9128794 -0.5379533 -0.14680567 -0.13004789 0.88429904 -0.38235024
0.43937927 -0.2761045 0.49526682 -0.16366208 -0.124765 -0.49363238 0.76909304 -0.3799659
-0.18580242 -0.13663274 0.65080917 -0.88012713 0.29089385 0.5730251 -0.0025685306 -0.77559453
-0.2079009 0.49744645 -0.019135965 0.8835916 -0.3099051 0.88333595 -0.58141017 0.19274202
-0.31572944 -0.26238117 0.31166816 0.5127136 0.82394457 -0.3073353 -0.1451057 0.41115934
0.098749645 0.9524588 0.27718034 -0.037099443 0.110100366 0.47663838 -0.2880015 -0.4078721
-0.22597814 -0.34607354 -0.65463597 0.48410255 -0.28894824 -0.088598154 0.8184299 0.35055226
0.030676106 0.65661234 -0.59958583 0.161831 -0.45086232 -0.8063962 -0.5292191 -1.0251447
-0.1952318 0.1908815 -0.1460653 -0.43064883 0.01773972 0.10929316 -0.1187387 -0.60304916
0.3223964 0.038035884 -1.2574214 0.558627 0.35765752 0.035439625 -0.026985137 0.07844206
0.33424953 0.59822786 -0.40233886 -0.81718314 -0.4540797 0.25224948 -0.41539896 0.9037892
0.44577968 -0.14888261 -0.96514046 -0.7697348 -0.8419253 -0.32587638 0.3586014 -0.40301988
-0.6726443 0.5867225 -0.037510417 -0.19414856 0.5887486 -0.83799 -0.4999406 -0.2047891
0.19867729 0.03901015 0.035029825 -0.10636127 0.6163566 0.87283194 0.4118946 1.3216695
-0.6664501 -0.5381135 0.70176995 1.0418912 0.28936547 -0.2015683 0.72825354 0.85089225
-0.526647 0.25386962 0.31949684 0.030331634 -0.5892331 0.7207703 -0.108692534 0.47909963
-0.21279228 -0.9254319 -1.265431 -0.0250323 -0.089271404 -0.3443538 0.027302437 -0.29182577
0.8231722 -0.12784334 0.07799424 1.2156832 0.7427914 0.558491 -0.0787454 0.3156667
0.10233796 0.21965297 0.58429205 0.24396558 1.0581915 -0.95350903 -0.30509362 0.24768594
-0.22795591 0.21446969 -0.34438494 -0.06732303 0.25945768 0.05611987 0.59952193 0.3005322
0.507754 0.1355843 1.2287191 -0.2864982 -0.047513194 0.14032702 -0.630124 -0.8171297
0.4971605 -0.15287627 0.52075213 -0.5084816 0.42103028 -0.13207857 0.3481582 -0.54819345
-0.27171522 -0.57108605 -0.07366784 -0.09832262 0.21067612 -0.027350249 -0.453078 0.55977494
0.40570194 0.28091457 -0.09434909 0.17014141 0.27650958 0.66192615 0.4741867 0.13389099
-0.15754 -0.12554729 0.34203395 -0.3033416 -0.46481657 0.3692333 0.01567219 0.55507576
-0.5245179 0.28955957 0.16459271 0.041169506 0.1780221 0.054677 0.3417305 0.049143307
-0.085134685 0.26753622 0.26909792 0.17357406 0.16661766 0.35834908 0.119531654 -0.20624644
0.15568495 0.26101702 -0.09918939 -0.28026822 -0.1539973 0.01404342 0.06455835 0.07612626
-0.014903541 0.46331257 0.1900731 -0.31488314 0.3433329 -0.46845594 0.11482919 0.21045993
-0.000965376 0.50766814 -0.23164834 -0.263758 -0.01328463 0.11993631 0.014400991 0.14366277

encoder.net.2.layer.bias f4 [32]
00000000: e9ad f3bf 74bd 363e 9ad4 abbe 1aff 18bf
00000010: a4e5 b03f e0ae 5a3f f4d9 a53f e8be dc3e
00000020: 9c5b c3be 4fee 5d3e 1ba2 833f b35e 9a3e
00000030: a23a 043f 1e44 a8bc 9537 8cbe 3582 ddbf
00000040: 884f 35bf 8dae 483f e91f a9bf 4966 1a3f
00000050: ba88 743e 99b3 473f 829f b9be 3229 0fbf
00000060: 63ed 493f add3 61bf 1bec 44ba 214a 17be
00000070: 794f 0dbf 7269 ca3f 2dc0 2c3e f751 c8bf
-1.9037448 0.17845708 -0.3356064 -0.59764254 1.3820081 0.8542309 1.2957139 0.431144
-0.3815583 0.21672939 1.0283846 0.30150375 0.51651967 -0.020540293 -0.27386156 -1.7305361
-0.7082448 0.78391343 -1.3212863 0.60312325 0.23880282 0.7800842 -0.36254507 -0.55922234
0.7887785 -0.88213617 -0.0007511989 -0.14774372 -0.5519939 1.5813429 0.16870184 -1.5650014

decoder.net.0.layer.weight f4 [48, 32]
00000000: 20fb ed3b f18f a2bf 9cf2 a53e e503 693f
00000010: 8547 c0be 9c66 e2be 7699 a1be f8a2 ffbe
00000020: f67a c5be a717 833e eaf6 a33e 86d1 f5bd
00000030: 73ce 7d3f 199f 84be 5204 303d 1e0f bdbd
00000040: f012 cdbe d6fd 073e 03ce c93e 9f33 efbe
00000050: a64c 343f a161 5a3e 8341 4dbd 1990 1dbf
00000060: 3da3 0dbe 6afd bdbe cef4 d9be 64cb 2b3f
00000070: 114d 863e d59a 94be 741a f7be 2d8f c93d
00000080: f649 dc3e 5fa6 84bf aefb 1d3f 1a1c ac3e
00000090: 5620 17be a90d b73e 5083 c63e 044d 12bf
000000a0: b38b 0e3f a241 343f 8a11 27be b51a 97be
000000b0: 6111 053e 66e8 fd3e bb7c a5bd c18b 2dbe
000000c0: 0333 d5bc 8e67 933e 9267 d9be 153d 29bf
000000d0: 9786 083f 313d 863e 9a95 d53d 5f43 7f3e
000000e0: 3ad0 be3d 3572 58bf 9713 a63e 8ced ef3c
000000f0: 18cc 163f 6075 1b3d cc1d 4e3e b48a 27bf
00000100: 0b5b 9e3c 00fc 173d a770 45bf 2a9b 2b3f
00000110: c911 543e a557 a5be d630 c6be 935a d93e
00000120: b9e3 6bbf eabd 1f3f a743 1cbf ebca c1bc
00000130: 7f2f 7b3e 2b7e 9bbe 26b7 be3d fc0b c3be
00000140: 9e57 333f aa34 b2bd 4fac ce3d 2cea 38bf
00000150: ff04 21bf 8b6d 16be 3f54 babe 6855 18be
00000160: 7a55 06bd dd4b d2be 6259 b2be 57ac fabe
00000170: 83b4 793d 0e54 0ebf 0630 02be ac32 493f
00000180: 8cdd d8bc e990 b63f c5fd 6bbe 8dd2 a2bf
00000190: 2911 1f3e ffc3 e53e 934d ec3e 2d2d 673f
000001a0: 1c1d be3e f7e6 7bbe 8032 d1bd 5d1a a13e
000001b0: a03d 91bf 41dc 94bc 0b36 413e c318 bdbc
000001c0: 74ea df3e 665a 85be 883b 9cbe 5667 313f
000001d0: b4ff a2bf 2fd0 3abe 65a4 9dbe cb28 9b3e
000001e0: 34fe 233e dca6 24bb 40b7 cf3e ab6b 43bf
000001f0: a67c 0cbf aee8 e23e a9b0 773e e8aa 293d
00000200: 3485 a23f eac7 8d3e ddc2 c9be 1734 59be
00000210: 860d 31be d5c2 123e 3572 8e3f 36a8 bb3d
00000220: 3ebc aa3e 2a16 9f3d cde1 32bd 7668 e5be
00000230: 5775 62bf da9a e6bd 54c3 203e 65bd 2d3f
00000240: c420 b2be 5504 2bbe 2270 f7be 2e28 b43e
00000250: 849d d7bd 65b3 0b3f 1ee1 f23e b384 763f
00000260: f91a b8be 6419 f2be 2124 87bd 3596 8a3e
00000270: ba67 493d 452a cebe 5662 493e 3f1f 07bf
00000280: 322c 053e b319 15be 2612 573f ba3f 34bf
00000290: 96be c8be 0b46 f53d adeb a53e f48a 1bbe
000002a0: 1ace 633f defa 2ebf 1620 5e3f 18df 863d
000002b0: a747 ebbe ddec a23e 4559 dfbe 41b4 fa3e
000002c0: 4e2b 4ebf b1e0 ee3d f1d0 1b3c eb90 623f
000002d0: 1ea0 483f 284b 023e 1178 9c3e ca1d a33e
000002e0: 1265 b03e bf1a 703e a2b5 b63e 3c06 1c3f
000002f0: 3cc2 38be 05eb f53e 296c ebbb 45ed 80bf
00000300: c77a ad3e 9b12 723e 79f0 4cbf ca10 c63e
00000310: fd6f c93e 80e3 5a3e 27cf ca3d 4a3e aa3e
00000320: 41e8 173f 48dc 493f 05a6 1bbf d32c b73d
00000330: 38df 02be 5d25 553f ac4c 8cbd dbca f4b8
00000340: 2311 c1bd 7318 c93e 39be 27bf fdf0 1dbf
00000350: 9e98 c1be 1989 433e 805f 0a3e 3ce2 a83e
00000360: 5be6 19bf 4082 74bf 9079 ac3e 3f37 bb3b
00000370: beda e23e 7e03 63bf 723d c33e d738 58bd
00000380: 336a de3e ee51 913e 5696 69bf a0a4 d6be
00000390: 4207 15bf cccc b03c febb 79be 340d dd3e
000003a0: 1ae4 d43e b8ab f53e 2af2 363f 3038 9dbc
000003b0: 81e8 013f 651c 4e3e a6fd e3be 93fc 0e3f
000003c0: d028 d1be ceb5 7abe d93e 703a 7a45 8a3e
000003d0: bc85 2d3f 7d93 583d 8c9e 643e bf96 a13d
000003e0: 3a8a 71bf 3b14 c63d 52b5 743e 12df 753d
000003f0: aa84 0c3f c783 1c3c 9bad 0ebe c118 92be
0.0072626024 -1.2700177 0.3241166 0.9102157 -0.37554565 -0.4421891 -0.31562394 -0.49929023
-0.38570374 0.25603983 0.32024318 -0.12002854 0.9914314 -0.25902632 0.04297287 -0.09231399
-0.4005351 0.13280424 0.39414987 -0.4671907 0.70429456 0.21326305 -0.050111305 -0.61548
-0.13831802 -0.37107402 -0.42569584 0.67107224 0.26230672 -0.29024377 -0.4826237 0.09841762
0.43025178 -1.0363272 0.6171216 0.3361519 -0.14758429 0.3575261 0.38772058 -0.57148767
0.55681914 0.7041265 -0.16315284 -0.29512563 0.12994911 0.49591368 -0.08080431 -0.16947843
-0.0260253 0.28789943 -0.4246183 -0.6610883 0.5333037 0.2621856 0.10428925 0.24928044
0.0931706 -0.84549266 0.3243682 0.029288076 0.5890517 0.037953734 0.20128554 -0.6544602
0.019330522 0.03710556 -0.7712502 0.67033637 0.2070991 -0.3229343 -0.38709134 0.42451915
-0.9214435 0.6239916 -0.6104073 -0.02365633 0.24529837 -0.30369696 0.093122765 -0.3809508
0.7005557 -0.08701451 0.10091459 -0.7223232 -0.6289825 -0.14690225 -0.363924 -0.1487633
-0.03279636 -0.41073504 -0.3483382 -0.4895961 0.060963165 -0.5559701 -0.12713632 0.78592944
-0.02647283 1.4262973 -0.23046024 -1.2720505 0.1553389 0.44876096 0.46152934 0.9030331
0.37131584 -0.24599825 -0.1021471 0.31465426 -1.1346931 -0.018171431 0.18868272 -0.023083096
0.4373356 -0.2604553 -0.3051417 0.69298303 -1.2734284 -0.18243478 -0.30789486 0.3030456
0.1601494 -0.002512387 0.40569496 -0.76336163 -0.548777 0.44318146 0.24188484 0.041422755
1.26969 0.27691585 -0.3940648 -0.21211277 -0.17290315 0.14332135 1.1128603 0.09162943
0.33346742 0.07767899 -0.04367237 -0.4480626 -0.88460296 -0.11260004 0.15699512 0.6786712
-0.34790623 -0.16700871 -0.48327738 0.35186905 -0.105280906 0.5457061 0.47437376 0.9629623
-0.35958079 -0.47284997 -0.06598688 0.27067724 0.049171187 -0.40266624 0.19666418 -0.5278205
0.1300514 -0.14560585 0.8401207 -0.7040974 -0.39207906 0.1197625 0.3240637 -0.15189725
0.8898636 -0.6835154 0.8676771 0.065855205 -0.45953104 0.31821337 -0.43622795 0.48965648
-0.8053483 0.1166395 0.009510265 0.8850238 0.7836932 0.12723982 0.30560353 0.31858665
0.3445211 0.23447703 0.3568545 0.6094701 -0.18042845 0.48030868 -0.0071845246 -1.0072409
0.33882734 0.2363991 -0.8005443 0.38684684 0.39343253 0.21375847 0.099027924 0.33250648
0.59338766 0.7885175 -0.608002 0.089440964 -0.12780464 0.83260137 -0.068505615 -0.000116726114
-0.09427097 0.39276466 -0.6552463 -0.61695844 -0.3781175 0.19095267 0.13512993 0.32985103
-0.6011712 -0.95511246 0.33686495 0.005713373 0.44307512 -0.88677204 0.38132817 -0.05278858
0.434404 0.2838282 -0.9124502 -0.41922474 -0.582142 0.02158203 -0.2438812 0.43174136
0.41580278 0.47982574 0.71463263 -0.019191831 0.507454 0.20128019 -0.44529456 0.5585415
-0.4085145 -0.24483415 0.00091646385 0.2700613 0.6778219 0.05287503 0.22326106 0.07890081
-0.9435154 0.096718274 0.23897293 0.06002719 0.5488993 0.009552903 -0.13933413 -0.2853451

decoder.net.0.layer.bias f4 [48]
00000000: ccd8 ab3e a490 bfbd 2f48 4bbe 5f24 123e
00000010: ef9a 2dbd d9bc 6cbc 4798 c7be f2d4 1d3e
00000020: 43ba 81be 2881 303f cf66 33bd 4f48 f5bc
00000030: 7815 393e d387 253d c075 83be 723c 3c40
00000040: cad3 073f 8a71 8fbc b408 243f af6e 2e40
00000050: c705 5b40 503e ac3e b090 91be 2aba 4c3f
00000060: d49b 893e 4bc0 8a3e 0211 203e 3847 cfbd
00000070: f131 ea3f ad7f 2440 f233 dd3d 44ce cbbd
00000080: 1a17 733d ae56 18be 05a2 133f 784f a03e
00000090: ec69 563e d9b2 5b3f 83ca 6340 8968 303f
000000a0: a216 0a3f 91d1 11bd 15c8 dabc 0596 783c
000000b0: ea71 d43d f414 2b3d 60e3 5e3e e926 c3be
0.3356384 -0.0935376 -0.19851755 0.14271687 -0.042384084 -0.014449322 -0.38983366 0.15413263
-0.2533742 0.68947077 -0.043799218 -0.029941706 0.18074596 0.040412735 -0.25675774 2.9411893
0.5305754 -0.017510194 0.6407578 2.7255056 3.4222276 0.3364129 -0.284307 0.79971564
0.268767 0.27099833 0.15631488 -0.10121006 1.8296491 2.5702927 0.108009234 -0.099514514
0.059348203 -0.14876816 0.576691 0.3131063 0.20938843 0.85819775 3.5592353 0.6890951
0.53940785 -0.03560025 -0.026706735 0.015172486 0.1037329 0.04176803 0.21766424 -0.38115624

decoder.net.0.bn.weight f4 [48]
00000000: 2dad 8a3f a99c 8e3f eae1 733f 7dc9 bb3f
00000010: c417 563f 1db2 9b3f ef5c 8f3f 5f2a 783f
00000020: 4b18 833f 5b8d 8a3f 13c2 533f 1e51 483f
00000030: 9d74 913f 837f 5b3f aa52 8b3f 6773 ad3f
00000040: e548 823f d8a7 6e3f 5534 963f d396 b53f
00000050: ae37 c03f 3dca be3f dad2 283f 3c41 883f
00000060: 316d 883f fbcb 863f 1500 863f ceb6 8f3f
00000070: 3764 a13f 81ae c93f 6d8b 823f 5ce0 2f3f
00000080: 3657 433f 3d19 823f 4518 643f 7996 9a3f
00000090: 986e 993f 1ffa 953f df55 a23f ca01 4b3f
000000a0: 158a 823f 38ed 853f 029c 7e3f e9da 463f
000000b0: f26a 6b3f 0dd6 8b3f 611b 763f dbed 7d3f
1.0834099 1.1141559 0.9526659 1.4670864 0.83630013 1.2163731 1.1200236 0.96939653
1.0241789 1.0824388 0.8271801 0.78248775 1.1363713 0.8574144 1.0884602 1.3550843
1.0178496 0.9322486 1.173472 1.4186653 1.5016992 1.4905468 0.65946734 1.0644908
1.0658323 1.0531 1.0468775 1.1227663 1.2608708 1.5756379 1.0198799 0.6870172
0.7630495 1.0163952 0.8909953 1.2077171 1.1986876 1.1716956 1.2682456 0.79299605
1.0198389 1.0463018 0.994568 0.7767778 0.9196006 1.0924698 0.96135527 0.99191064

decoder.net.0.bn.bias f4 [48]
00000000: 24df 183e c19d 843f c1e7 13be 2051 02bf
00000010: a132 b53f 4dba 4d3f e7a7 bd3e b29c a43e
00000020: 4857 283d 292e 9c3d 7d8b 8f3a 9eec 0ebf
00000030: 710a a4be 301c 8b3f d8cf 753e 4bfb 9ebe
00000040: 5681 383f 73d4 19be d8cd 65be 7f79 35be
00000050: 354e 083f 7ffb 273f f32d 3a3f 8cba be3f
00000060: a288 083f 0a72 c13d 3aec b53f 4bd4 933e
00000070: e923 7c3f 6411 6d3f 0e67 9e3e b4c2 80be
00000080: a785 973f b52a 103f 90a6 6f3f e051 693e
00000090: 0fb7 083f 2671 0b3f a84f 363e 1413 8e3f
000000a0: 32b7 283f a4b9 e33e ab80 d23e 80e9 3dbe
000000b0: 2e76 9dbf 5581 02be 41c5 39bf 275d 3e3f
0.14928871 1.0360643 -0.14443876 -0.50905037 1.4156076 0.803624 0.37042162 0.321508
0.041098863 0.07625992 0.0010951605 -0.558298 -0.32039216 1.0867977 0.24005067 -0.31051096
0.7207235 -0.15022449 -0.22441804 -0.17722128 0.53244334 0.6561813 0.7272636 1.490068
0.53333485 0.09445579 1.4212716 0.28872904 0.98492295 0.9260466 0.30938 -0.25148547
1.1837662 0.56315166 0.9361353 0.22785139 0.53404325 0.54469526 0.17803824 1.1099572
0.65904534 0.4447757 0.4111379 -0.18546104 -1.230169 -0.12744649 -0.7256661 0.7436089

decoder.net.0.bn.running_mean f4 [48]
00000000: d842 d13f 490d 9a41 a8a5 0e3e fbd2 ca41
00000010: 1770 ed3f df60 d241 c507 f940 1f17 af40
00000020: 90c1 05c0 433e 6442 7f0e 4a40 9467 f2be
00000030: dddb 6041 b6bd ac41 c026 5e41 f938 5a42
00000040: 8b0b b540 c382 75bf c2b9 ba41 d71b 8142
00000050: c65d 6842 bc0e 7641 f30a d640 1e2b 0c42
00000060: 08a9 6a41 a441 8441 cbce 4041 d731 a040
00000070: a6b6 4c42 ed5b 3d42 c275 5a41 d6f0 9041
00000080: 7a7f ae3f a1e2 aa41 d2e9 4941 3220 a841
00000090: 94f4 6341 d002 1742 2b70 5942 5a4d 2a42
000000a0: a6fe f940 ca26 dd41 4533 0ec0 980f 44c0
000000b0: f7c1 a33e 3158 a740 d1d6 6e41 6739 83bf
1.6348524 19.256487 0.1393038 25.353018 1.8549832 26.2973 7.7821984 5.4715724
-2.089939 57.060802 3.1571348 -0.4734465 14.053678 21.592632 13.88446 54.555637
5.657659 -0.9590265 23.340702 64.554375 58.091576 15.378597 6.6888366 35.042107
14.666267 16.532051 12.050487 5.006084 51.178368 47.33977 13.653749 18.117596
1.3632653 21.360659 12.619585 21.01572 14.247211 37.752747 54.35954 42.57554
7.812335 27.64394 -2.2218792 -3.0634518 0.3198392 5.2295156 14.927445 -1.0251893

decoder.net.0.bn.running_var f4 [48]
00000000: 4782 2443 e5db ee43 3f32 3e43 7fbf 7044
00000010: 24d7 4243 f491 0a44 5f79 eb43 a68e c243
00000020: 4d4f ae42 d609 a943 c67c 2943 2d72 1e43
00000030: 1a9c a643 771f c043 6ec5 b943 6615 7b43
00000040: 3d80 e243 a20e 4c43 508d c643 eedd 8d43
00000050: f016 9843 3f47 1044 30c3 aa43 2e08 b043
00000060: b9d9 1e44 19eb ad43 434f 5d44 6062 9943
00000070: 744d 8043 a9be a643 25a3 2644 0f33 af43
00000080: 4796 7a43 e11a 3244 6704 7f43 7fbf 8843
00000090: 6f70 aa43 bad3 cd43 fa6e 7143 e22b 0a44
000000a0: 3eb8 2144 b257 2044 f614 3c43 70cd 1a42
000000b0: 4861 3743 bdca a143 d8f7 0e44 1a33 4443
164.5089 477.71793 190.19627 962.9921 194.8404 554.2805 470.9482 389.11444
87.154884 338.07684 169.4874 158.446 333.21954 384.24582 371.54242 251.08359
453.00186 204.05716 397.104 283.73383 304.1792 577.1132 341.5249 352.0639
635.4019 347.8367 885.23846 306.76855 256.6051 333.48953 666.54913 350.3989
250.58702 712.42 255.0172 273.49606 340.8784 411.6541 241.4335 552.68567
646.8788 641.37024 188.08188 38.700623 183.38 323.5839 571.87256 196.19962
