model/best_model.pth (torch_old, 31487 bytes, 20 tensors)

Encoder_1.0.weight f4 [64, 16]
00000000: 74ee 883e 3140 92be 30c0 cc3d b2cd 0cbe
00000010: 8677 16bf d33e a93e f138 f2bc 7ffa 6dbe
00000020: 3783 c3be d103 203f e95e 06bf 6060 65bd
00000030: 47c9 0a3f 7ce3 053f 6d6e 16c0 e06b 0d3f
00000040: 1aec a5bc 5869 ebbd a972 89be 1721 95bd
00000050: 5950 073f fa42 863e 68ea e33e ec23 053f
00000060: c9f1 433e 0a67 503e 086f 143e 207e 243f
00000070: 6ad6 1b3e f951 86be a446 e4bf 8545 2c3e
00000080: 8d80 553f 2b06 e6be cb28 59bf 7988 d6bd
00000090: 709f 993f 9721 dc3e 5115 c0bc 50ee 08bf
000000a0: bb41 bc3f b024 133f 3c40 b0be 265d e4be
000000b0: 2916 253f 2745 8dbd cc0f 8dbe 9e02 1b3f
000000c0: c225 383e 580e c23d e086 ba3f 4796 3dbf
000000d0: d97f a83e 554d 2b3f b7ee 89bb 567e 43be
000000e0: b1ce 5f3e 2604 3c3f d330 4fbe 6c65 f83d
000000f0: 700e dbbe 2237 f13d 1134 97bf e88c 093d
00000100: 7af9 4b3d fe5c 963e 3563 e53e 5a12 3ebe
00000110: 9798 ecbe 81c7 cfbe 3cb6 aabe 15ed 853d
00000120: d795 10bf 0562 38bd 733f fabe ab22 cb3d
00000130: 18cf febf 4d2b 90be e474 343f 0ad3 393f
00000140: 4667 873d 74a3 1dbf 2fc4 e0bd ce74 74bf
00000150: 9e89 123f 040a c3be 167e 813d ff86 af3f
00000160: e12d 8d3e 0c1e a7be 6d0f b23d b70c 8e3f
00000170: 0afb 20bf ee9a 223f 8459 ef3e 9967 87bd
00000180: 537d 113f 946a 343f dd55 353e 95b0 8f3d
00000190: 2c1b 36bf 6a93 8d3f 50a6 1c3f 3e0f 31bf
000001a0: 390c 1fbf cdcf 6d3f 5f3c 413f 8fd9 28bf
000001b0: 2b30 debd b5ab ee3e 21c0 c73e 57b9 8ebe
000001c0: ac8f 17be 8210 003c b5aa 223f e965 243f
000001d0: 13e4 633f 2b0a d13e f699 34bf 154a f9bd
000001e0: a8b6 0c3f e57a 223e df52 0cbf 12e4 dfbe
000001f0: 2c7f 07bf 3888 bc3e 8606 973f 7297 84bf
00000200: c72a 1ebf 94d9 71be be0a 05be bf7a 8fbe
00000210: 84cb f73d a7db 9e3f ce0b 203e a482 8a3f
00000220: 231d 6f3e fe95 443f ef98 7ebd 55f3 463f
00000230: c90c 1e3f 9523 7bbf d589 ce3d 2f89 6ebf
00000240: d113 7e3d 9dbd 38bf e996 1b3f e64e 2240
00000250: 4f62 89be 9968 d6be dc19 243c e428 9e3e
00000260: def4 f6be 812c b4be ec5c 07bd 7ad4 ee3e
00000270: bb8a d7bd e6d0 bdbe 1272 42be d668 753e
00000280: c02e a73e bb8b 463f 6625 293f 7073 443e
00000290: 92c3 1dbf 7428 90be 83cc 4fbf ea47 643f
000002a0: 19c9 0cbf 886d a0bd b50c 2fbf edc9 793f
000002b0: 6dab d4bd 155f 283d c830 a6bd 5cfe 4c3e
000002c0: f11a babb 61e0 d63e 0b7a 15bf 34fd 0f3e
000002d0: 555e 8dbe 5a97 c93b 7e94 9b3e 6e03 18bf
000002e0: 836d 88be ee42 c6bd 87e5 743b 764b 94bf
000002f0: 0b0f 293f 0ecc 34be 0bff 28bf 312f a6bf
00000300: e572 433e 8eba 4e3f 40dd be3e bd23 fe3d
00000310: d2fa e23e 7cb9 15bf 8a3f e23e b637 753f
00000320: 7471 253f 6be5 e1be 5325 5d3f 9371 af3e
00000330: 3862 df3e 633f ce3d 1c74 dd3e 23cf 50bf
00000340: b7dd 3b3f 70d2 183d 828c 1bbf 392a b73e
00000350: 7ee1 24bf 8d1c 74bf 58c9 97bd b7ae bb3e
00000360: 7f93 03bf 40bb 7cbf 13ea cabe dcac dc3c
00000370: 769e 95be f7fb 84bf f198 49bd 02c6 83bf
00000380: 8f30 2abf f531 1a3f b21a 8abe 7d52 113e
00000390: 9381 183f 72ac b9bf fa60 99bc 1304 47be
000003a0: 4c88 253f 3168 a0bf 4798 7c3e 5216 22bf
000003b0: ef3a f2be 55f9 953e b7ff 82be 31e0 14bf
000003c0: fb30 393f 7e3e 53be 0778 8ebe 555d c7be
000003d0: 2f58 40bf 3de8 283f dc90 88bd 327e 573f
000003e0: e8f3 28bf 188d 513f 9733 893e d4b6 413f
000003f0: 130b 3a3e 443b e5be 45af 293e bbf9 8c3d
0.26744425 -0.285646 0.09997594 -0.13750342 -0.5877613 0.33055744 -0.029568167 -0.23240088
-0.38186046 0.62505823 -0.5248857 -0.056000113 0.54213375 0.5230024 -2.3504899 0.5524273
-0.020254184 -0.11494702 -0.2684529 -0.07281702 0.52856976 0.26222974 0.44514775 0.5200794
0.19135202 0.20351806 0.1449548 0.6425495 0.15218511 -0.26234415 -1.7834058 0.16823395
0.8339928 -0.4492658 -0.8482787 -0.10475249 1.2001781 0.42994377 -0.023447664 -0.53488636
1.4707559 0.57477856 -0.34424007 -0.44602317 0.6448694 -0.068979554 -0.27551115 0.6055087
0.17983153 0.09475392 1.457241 -0.7405743 0.3291004 0.66914874 -0.004209365 -0.19091162
0.2185619 0.7344383 -0.20233469 0.1212872 -0.42784452 0.11778094 -1.1812764 0.033581644
0.049798466 0.29367822 0.4480225 -0.18561688 -0.46210167 -0.40581897 -0.3334216 0.065393604
-0.5647864 -0.045015354 -0.48876533 0.09918722 -1.990695 -0.28158036 0.7049086 0.72587645
0.06611495 -0.61577535 -0.10974919 -0.9549073 0.5724124 -0.3809358 0.06322877 1.3713073
0.27574065 -0.3264011 0.086943485 1.109763 -0.62883055 0.63517654 0.46747983 -0.066115566
0.56831855 0.70475125 0.17708535 0.07016102 -0.7113521 1.1060612 0.6119127 -0.6916388
-0.62128025 0.92895204 0.75482744 -0.6595697 -0.10849031 0.46615377 0.3901377 -0.27875778
-0.148009 0.007816436 0.6354173 0.64218 0.8901989 0.4082807 -0.70547426 -0.12172333
0.5496621 0.15867193 -0.5481395 -0.4372869 -0.52928424 0.36822677 1.1798866 -1.0358717
-0.61784023 -0.23618156 -0.12992379 -0.28023335 0.120993644 1.2410783 0.15629503 1.0821118
0.23350959 0.7679137 -0.062157568 0.77715045 0.6173826 -0.9810117 0.10084883 -0.93178076
0.062030617 -0.72164327 0.60777146 2.5360656 -0.26832816 -0.41876677 0.010015931 0.30890572
-0.48233694 -0.35190204 -0.0330476 0.46646482 -0.105245076 -0.3707344 -0.18988827 0.23965773
0.32652855 0.7755696 0.6607269 0.19184661 -0.6162654 -0.28155863 -0.81171435 0.8917223
-0.5499435 -0.078333914 -0.68378764 0.9757374 -0.103842594 0.041106302 -0.08114773 0.20018905
-0.005679481 0.41968063 -0.5838935 0.14061433 -0.27611032 0.0061520757 0.30386728 -0.59380233
-0.2664605 -0.096807346 0.0037368254 -1.1585529 0.6603858 -0.17655966 -0.66014165 -1.2983152
0.19086798 0.8075341 0.37278175 0.1240916 0.44331986 -0.5848615 0.441891 0.95788133
0.6462624 -0.44120345 0.8638508 0.34266338 0.43629622 0.10070684 0.43252647 -0.81566066
0.73385185 0.037310064 -0.6076127 0.357744 -0.64406574 -0.95356065 -0.0741145 0.36656734
-0.51396936 -0.9872322 -0.3963171 0.026937895 -0.2922246 -1.0389394 -0.049218122 -1.0294802
-0.66480345 0.6023248 -0.26973492 0.14191623 0.59572715 -1.4505751 -0.018723 -0.19435148
0.646611 -1.2531797 0.24667464 -0.6331531 -0.47310588 0.29291788 -0.2558572 -0.5815459
0.72340363 -0.20629308 -0.2782595 -0.38938394 -0.7513456 0.6597937 -0.06668255 0.84176934
-0.6599717 0.81855917 0.26797172 0.756696 0.18168287 -0.4477178 0.16570766 0.0688357

Encoder_1.0.bias f4 [64]
00000000: 8ecf d0bd ea00 473e 048d d9bd d4f9 b73d
00000010: 0618 9b3d 5a8f 6b3e 2d2b 4cbe 393f 65be
00000020: 1236 333e 7b9c 7a3e 47c0 33be 0ca6 393d
00000030: 85b9 6cbe 917e 82be 1bae 97bd 1718 49be
00000040: a2d3 a93c 4e4a 0abe c734 7ebe 127f febd
00000050: 9d23 36bb e7d2 7b3d d929 72bd b416 ba3d
00000060: cbb3 913b f0de 7fbe 7466 55bc b79c ac3c
00000070: 071c 52bd a6ec 963c 705b 2c3e d0ed 1e3e
00000080: 5f37 43be fa64 203e 5d7b 75bd 5425 62be
00000090: 71bb c83c f333 253e acc8 8abd 8b1c 5e3e
000000a0: 3b45 70be 19cc 2c3e 9bb5 4dbe 8560 3d3e
000000b0: a9af 85be c541 803e 9d4e 24be 56b8 f43b
000000c0: a073 243d 711d 74be 72a8 f5bd 56ff 433e
000000d0: 59a8 513e eb9a b23d e00d 09be 0cf0 cf3d
000000e0: bce5 373e 09d1 85be acf5 5abc 1acf 573d
000000f0: d893 b13c 5390 8dba 8951 003e e3fc 993c
-0.10195838 0.19433942 -0.106226 0.08983198 0.075729415 0.23003903 -0.19938345 -0.22387399
0.17501095 0.24473755 -0.17553817 0.04532437 -0.23117645 -0.25487188 -0.07406255 -0.19638096
0.020730797 -0.13504907 -0.2482482 -0.124265805 -0.0027792223 0.06148043 -0.05912194 0.090863615
0.004446482 -0.24987388 -0.013024915 0.021070821 -0.05129626 0.01842339 0.16831756 0.15520406
-0.19064091 0.1566352 -0.0599321 -0.22084552 0.024503442 0.16133098 -0.067765564 0.21690576
-0.2346391 0.16874732 -0.20088808 0.1849385 -0.2611058 0.25050178 -0.16045614 0.0074682636
0.04014933 -0.23839356 -0.11995019 0.19140372 0.20474376 0.087209545 -0.13384199 0.10153207
0.1795873 -0.26136044 -0.013364237 0.05268774 0.021676943 -0.0010800458 0.12531103 0.018797344

Encoder_1.1.weight f4 [64]
00000000: 1972 553f 8fa0 973f bbd3 573f 5472 3b3f
00000010: 8400 763f 80c7 8e3f 546f 8c3f 8091 663f
00000020: 51a0 b03f 08b1 a13f 8daa 083f 4956 6f3f
00000030: b3b0 973f 3d74 c13f 17f4 b83f d06b 463f
00000040: 1c65 d13f cc9b 953f a545 8e3f 6ebb 9c3f
00000050: 49b9 3a3f 3976 a43f 6766 9c3f dd05 953f
00000060: 17b6 953f 3f9d 6c3f ddbb 523f 3673 253f
00000070: cac3 883f 80f7 6f3f f1e3 af3f e610 863f
00000080: bd29 083f 82f3 493f 6489 ad3f 9016 b73f
00000090: fdfe 4e3f 6b79 8c3f 0dea b73f 46a8 b13f
000000a0: be36 f33e e9c4 c63f ed7a 953f a432 543f
000000b0: 7eb5 583f 975b a13f 202e 9a3f 0242 ff3e
000000c0: d2f6 0f3f 4981 953f 4b5b c43f 4772 a33f
000000d0: 51b7 c33f 7672 6f3f 0c9d 993f c2fc af3f
000000e0: f9b8 953f 6e6d a93f 0cb9 a23f 7591 2b3f
000000f0: 923b b63f 844b 993f 4cfa 353f b9b8 6d3f
0.83377224 1.1845874 0.8430745 0.73221326 0.96094537 1.1154633 1.0971475 0.90065765
1.3798925 1.2632151 0.5338524 0.93491036 1.1850799 1.5113598 1.444949 0.7750826
1.6358981 1.168817 1.1115004 1.2244699 0.7293897 1.2848579 1.2218751 1.1642414
1.1696194 0.9242744 0.82317907 0.6462892 1.068475 0.9373703 1.3741437 1.0473907
0.5318869 0.7888719 1.3557553 1.430376 0.8085783 1.0974554 1.4368302 1.3879478
0.47502702 1.5528842 1.1678139 0.8288977 0.84651935 1.2606076 1.2045326 0.49855047
0.5623599 1.168008 1.534036 1.276925 1.5290319 0.9353403 1.2001052 1.374901
1.1697074 1.323652 1.2712722 0.67018825 1.423693 1.197617 0.7108505 0.9285999

Encoder_1.1.bias f4 [64]
00000000: d832 d33e e880 c6be 4203 813f 2008 3f3e
00000010: a817 dfbd 742e 2440 19e2 0f3f a1cc 3e40
00000020: 090e ec3f 0ff7 0f3f ed83 cd3f 162e 4c3e
00000030: dc62 f4be f41c 4b3b ef45 223e a721 b03d
00000040: 6908 1f3e 2145 2e3f 23b6 2340 12bc 1c3e
00000050: b2c2 f23e c1d3 a8be 26b5 50bd e019 39be
00000060: 8e0e cdbd 06b1 73be 7356 5e3f eb12 86be
00000070: 6bb5 983d 2025 9c3d 7407 f53d 677f 963f
00000080: 33a6 fabc 1141 d73e f24c 453e 003d 23bf
00000090: 1087 3abe 359a 47bd 125f acbe ba20 34bf
000000a0: f5a7 793e 604a 5ebf b968 5cbd f079 d9bd
000000b0: cb86 4c40 abfe 853e ecf6 34be 517b a53e
000000c0: 47aa ca3f a117 61bc 8b80 b2be 7976 3ebe
000000d0: 14b1 1cbc 67d1 e93e 4c06 0fbe 2c89 f3be
000000e0: 73d9 c33d 82be ca3f c9b5 25bf 1471 bf3e
000000f0: 3876 193e 5533 ecbd ee31 dc3e ed31 4b3e
0.41249728 -0.38770223 1.0079119 0.18655443 -0.10893184 2.5653353 0.5620437 2.9812396
1.8441783 0.56236356 1.6055886 0.19939455 -0.47731674 0.00309926 0.1584699 0.08600169
0.15530552 0.6807423 2.5579917 0.15306118 0.47414166 -0.32974055 -0.050954007 -0.18076277
-0.10012542 -0.23797998 0.8685066 -0.26186308 0.07456478 0.076242685 0.11964312 1.175763
-0.030596828 0.4204183 0.19267634 -0.63764954 -0.18215585 -0.048731048 -0.33666283 -0.70362437
0.24380477 -0.8683224 -0.05381081 -0.10618961 3.195727 0.2617086 -0.17672318 0.32320645
1.5833215 -0.013738544 -0.34863696 -0.18599881 -0.009563703 0.45667574 -0.13967246 -0.4756559
0.095629595 1.5839388 -0.6473051 0.3739096 0.14986503 -0.11533228 0.43006843 0.19843264

Encoder_1.1.running_mean f4 [64]
00000000: 0aef d8bd 6179 603e b72f 34be 8223 113e
00000010: 09b2 963d 9149 593e 8a55 00be 6f90 41be
00000020: 114c 733e 204b a53e 2257 18be ea02 3b3d
00000030: 5932 34be 7e45 8ebe 6fe2 e2bd c7e0 2cbe
00000040: 3565 3d3d 24f1 22be 814e 7dbe 6547 05be
00000050: af09 1e3c 8551 993d 4096 ffbd 9b0c 483e
00000060: a8a3 c13b 047b 43be c354 e5bc 4e14 b03c
00000070: c7e6 80bb 495c c93a 1c52 793e 2ebd 733e
00000080: bc15 36be d356 073e b9ce 4fbd c4cc 93be
00000090: 69a6 3fbc e2e6 6c3e 0ea5 17be 9e9e 733e
000000a0: 9204 21be 373b b33d 494b 89be 1bbd 2f3e
000000b0: ddb9 92be bb06 343e d5c2 dfbd 45e0 253c
000000c0: cd6f ae3d 1783 81be 0af1 8bbd 3bbb 3b3e
000000d0: bcc0 3d3e eacc ad3d 4d46 30be 0932 a63c
000000e0: 1e2b 4a3e e815 4ebe 8ab6 b6bd 19d6 633d
000000f0: 96ac 453d 9110 f03c 9116 103e c30d 513d
-0.10592468 0.21921302 -0.17596327 0.14173701 0.07358176 0.2121947 -0.1253263 -0.18902753
0.23759486 0.32283878 -0.14876989 0.045657076 -0.17597331 -0.27787393 -0.11078345 -0.16882621
0.046239097 -0.159123 -0.24736978 -0.13015516 0.009645863 0.07486252 -0.1247983 0.19536059
0.005909402 -0.19089895 -0.02799452 0.021494057 -0.003933761 0.0015362586 0.24347728 0.23802635
-0.17781729 0.13216715 -0.050734255 -0.2886716 -0.01169739 0.2313495 -0.14809057 0.23790976
-0.157244 0.08751529 -0.2681525 0.17161982 -0.28657427 0.17580692 -0.10925833 0.010124271
0.08517418 -0.25295326 -0.06833084 0.18333142 0.18530554 0.0848635 -0.17214318 0.02028753
0.1974301 -0.20125544 -0.08921535 0.0556241 0.048260294 0.029304774 0.14071108 0.051038515

Encoder_1.1.running_var f4 [64]
00000000: 9ef8 4840 d2ee d040 afc0 e740 8e55 c340
00000010: 286a 9b40 af81 4a40 2abf c540 8457 1540
00000020: 4c6e 1e41 b3e4 af40 2400 cf3f 4b12 0241
00000030: 7403 6e41 1ef2 7341 fd91 e640 b9af 5840
00000040: 90f7 7d41 0871 1c41 b1b8 a940 5a13 bb40
00000050: 5a82 7940 304f 9840 9ec3 d140 7b44 5841
00000060: 0c67 1541 c9dd 3341 ce01 3540 f3b8 3b40
00000070: 6dfa 9c40 e64b de40 be93 4041 7101 6741
00000080: 3191 dc40 cc55 1041 9c9d 8040 5d13 8440
00000090: 32be a440 7839 8641 dca5 a541 dcf2 ea40
000000a0: 759f 9a40 ee02 1d42 01da 0d41 997d 9140
000000b0: 8474 2340 fc69 3d41 2f15 1141 fdbe 5e40
000000c0: 8cba fe3f 4317 1f41 b884 2041 c700 6c40
000000d0: 6c6f 3141 a404 dd40 dc9d 8e40 106a 9e41
000000e0: e612 ea40 2b0c 4841 a1ef df40 6e0c b740
000000f0: 1c55 9341 300b 9a41 93e2 9840 faf3 9c40
3.1401744 6.529153 7.242271 6.1041937 4.8567085 3.1641653 6.1795855 2.3334665
9.901928 5.4966674 1.6171918 8.129466 14.875843 15.246611 7.205321 3.3857253
15.87294 9.7775955 5.3037953 5.8461123 3.898581 4.7596664 6.555129 13.516719
9.337658 11.241647 2.8282351 2.9331634 4.9055696 6.946765 12.03607 14.437852
6.8927236 9.0209465 4.0192394 4.1273637 5.148217 16.77806 20.705986 7.342146
4.831965 39.25286 8.865724 4.5465817 2.5539865 11.838375 9.067672 3.480407
1.990068 9.943179 10.032402 3.6875474 11.089703 6.9068165 4.45677 19.801788
7.314807 12.502971 6.9980016 5.7202673 18.416557 19.255463 4.777658 4.9047823

Encoder_2.0.weight f4 [32, 64]
00000000: 412e e0bd aad1 283d e0d5 efbd 66c5 14be
00000010: fa7f 463f be29 d9be 1603 553e a6ef 5ebe
00000020: 1998 55bf 6843 dcbc a701 9f3e 6e53 39bf
00000030: d8ae 22be 3c4e e8be b147 73bf f3f2 263e
00000040: 4d3c cebe 0ced 96be 8032 503e 5df7 4b3f
00000050: 5c94 96be e1b3 3fbe 63ce 3e3f 0d4d e1be
00000060: bc9a b2be 6849 adbe 26c2 7fbe 0acc a1be
00000070: a7df b8be 36c8 463f f0dd 4bbe 39a1 7ebf
00000080: fc2e 75bd 277d 56be 2949 533e 1d97 38bd
00000090: e9f6 0c3f 53a8 13bf fd06 4b3f 727b 863d
000000a0: 324f e4ba 9941 bb3d 68b2 36bf 2e20 db3d
000000b0: 4b35 96be 8436 7a3f 1726 d63d bb36 01be
000000c0: a96d 7dbe 0b41 ecbe b94f b43d e3d4 143e
000000d0: 65cb 01bf 7141 febc 5011 173e 40cd 6f3e
000000e0: 8c18 6cbf 17c0 7fbf f129 b2be 4ea8 b1bd
000000f0: 1a77 58bf 12e5 f2be 7f55 67be c4b8 903e
00000100: 1f78 183e 0af1 1cbe 7c24 9ebd 6b86 d3be
00000110: 60c5 a33e 57ac 8c3f d27d 99bd 8634 1b3f
00000120: be09 cfbe f450 073d c009 ae3e ffd7 a83c
00000130: 6da1 46bf 2ad9 e23d 0449 86be b33e 503e
00000140: 4d27 013f 4271 0bbe d433 18c0 8894 fb3e
00000150: c6b4 b33e 858f 6b3e cd08 10bf 2651 c5be
00000160: 3e14 03bf 158d 75be e0fe c63f fad0 5d3f
00000170: 3811 953e 9edc a93e afe6 1b3e 5242 9bbd
00000180: 2385 92bc e113 8f3e 3185 adbd 6186 2e3e
00000190: 0c63 3cbe 397a babe acb6 d4be 6b11 29be
000001a0: 2f91 a4be 82d7 6b3e 9ceb ce3d 0bfb 153f
000001b0: 4487 24bf 6692 ab3e 6a78 a93e 280f 85bf
000001c0: 1ceb cc3d d066 8fbc 51c1 163f 9ef9 b0ba
000001d0: f908 01bf 2268 44bf 87c8 1f3e 9e65 9ebd
000001e0: df89 693f 2801 76be c960 89be 6dec 2ebf
000001f0: 3242 60be 77ee 083d becc 3a3e 508e 293f
00000200: 8ae4 37be a5f6 e43d c2ca b9bd 1f60 13be
00000210: 8c77 0d3e 4a63 543e 2d06 84be 3fc4 cabe
00000220: 27f2 273f d728 a43e 2f69 3dbe 9e52 43bd
00000230: 5d4c 313f c5a7 c4be 21e3 783e 32c1 7a3e
00000240: 490b b8bd 5bbe 64be c3e2 f23e 40f5 9f3e
00000250: 12c5 303c 7c3e b6bb d4d7 0dbd 8c2a 613e
00000260: 0cd3 c2be e810 c73e 1e86 433e 17fe dcbd
00000270: 899f 9f3e e665 28bd 636d e83d 53bc 503f
00000280: 6b36 36bd b1b3 10be eed6 2bbf ec2b e5be
00000290: 6fc5 f0be 2433 f03e 3ded 80bf 75ca 1abe
000002a0: 7c0e bc3e 11e4 d0bf 2e64 74bf 2f96 26bf
000002b0: 3c22 8abe 2658 39bd 1edc 7abe f992 873e
000002c0: 5cb6 e3be 2666 cdbe 0b28 5e3f d1bb 883d
000002d0: be9b 8bbe 7d8b cf3e 3291 23bf e909 94bf
000002e0: ad41 60be 232c 0040 fb5c 2dbd e38e 993e
000002f0: 4b05 42be da11 313f 320f f83d aac2 733d
00000300: e75e ef3e b284 cf3e 23e2 70bf 2b94 833e
00000310: 7ca1 0f3f 80e6 7b3e ce00 c0be cb79 16bf
00000320: eae0 94be bc3c 2fbd ed0c 3c3f 5c67 70be
00000330: a52d bfbe b6ca f8bd 2e82 c7bd d8eb 40be
00000340: d368 d9be adb6 26be 45f3 e6be 017b 66be
00000350: 1894 0cbf 367e 0d3f c810 fb3e 1e27 3cbd
00000360: 9996 84bf 315f ca3c 206d 3e3f a617 853e
00000370: f991 d4be eeb8 833e e6e4 e7be 6ec7 99be
00000380: 1f94 14bf c8f2 4dbf 1705 8a3f 93b1 a0bd
00000390: 3bfb c2be 52a5 4bbc 8b1b 803e 5bbe 3f3f
000003a0: 4708 10be 40aa a73f 68bf 27be ec4c 5dbd
000003b0: 8cc3 d53e 970b 3cbe fb24 d7be 9fb4 0abf
000003c0: 810c a1bc aa2a 663e 143d 72be 16f4 38bf
000003d0: fb65 2cbd b515 153e 9079 85be f716 783e
000003e0: a1e4 b43f dde1 da3c e71d 893e 15ed 29bf
000003f0: 579f 88be 6323 83be df69 253e 18fd e4bd
-0.10946322 0.041215576 -0.11710715 -0.14528427 0.77539027 -0.4241466 0.20801958 -0.21771106
-0.8343521 -0.02688761 0.31055948 -0.7239293 -0.1588701 -0.45372188 -0.9503127 0.16303615
-0.4028038 -0.29477727 0.20331764 0.7967432 -0.29410064 -0.18720962 0.7453367 -0.44004098
-0.34883678 -0.33845067 -0.24976406 -0.31600982 -0.36108133 0.7764925 -0.19908881 -0.99464756
-0.05985926 -0.2094618 0.20633377 -0.045065988 0.55064255 -0.5767872 0.7930754 0.06566514
-0.0017418622 0.09143371 -0.71365976 0.10699497 -0.29337534 0.97739434 0.10456484 -0.12618534
-0.24748863 -0.46143374 0.088042684 0.14534335 -0.5070098 -0.031037064 0.14752698 0.2341814
-0.92224956 -0.9990248 -0.34797624 -0.0867468 -0.84556735 -0.47440392 -0.22591208 0.28265965
0.14889573 -0.15326324 -0.077218026 -0.4131349 0.31986523 1.0990094 -0.074947014 0.6062702
-0.4043712 0.033036187 0.33991814 0.020610807 -0.77590066 0.11076577 -0.26227582 0.20336418
0.50450593 -0.13617423 -2.3781633 0.49136758 0.35098857 0.23003967 -0.5626343 -0.38538474
-0.5120276 -0.239796 1.5546532 0.86647 0.291147 0.3317613 0.15224718 -0.07581009
-0.01788575 0.27944854 -0.0847267 0.17043449 -0.18397158 -0.36421373 -0.41545618 -0.1651055
-0.32142016 0.23031428 0.10103533 0.58586186 -0.642689 0.3351013 0.3309968 -1.039525
0.10005781 -0.01750508 0.5888873 -0.0013502126 -0.50404316 -0.76721394 0.15603839 -0.07734226
0.91226 -0.24023879 -0.26831654 -0.6832951 -0.21900252 0.033430543 0.18242165 0.66232777
-0.17958274 0.11179856 -0.09071876 -0.14392136 0.13815135 0.20741001 -0.25785962 -0.3960285
0.6560387 0.32062408 -0.18497156 -0.04768621 0.69257146 -0.38409248 0.24305393 0.2448776
-0.089865275 -0.2233824 0.4743863 0.31241798 0.010789173 -0.005561648 -0.034629658 0.21988887
-0.3805164 0.38880086 0.1909413 -0.10790651 0.31176403 -0.041112803 0.11348989 0.8153736
-0.04448549 -0.14131047 -0.6712483 -0.44760072 -0.4702563 0.46914017 -1.0072399 -0.15116294
0.367298 -1.63196 -0.9546536 -0.6507291 -0.26979244 -0.04525008 -0.2449803 0.2647932
-0.44475067 -0.40116996 0.8677985 0.06676448 -0.2726726 0.4053611 -0.63893425 -1.1565524
-0.21900053 2.002694 -0.042325 0.29991826 -0.18947332 0.69167864 0.12112273 0.059511818
0.46752092 0.40530926 -0.9409506 0.2569898 0.5610578 0.24599648 -0.37500614 -0.5877959
-0.29077846 -0.04278253 0.73457223 -0.23476928 -0.37339512 -0.12148039 -0.09741627 -0.18839967
-0.42462787 -0.16280623 -0.45107475 -0.2250786 -0.54913473 0.5527071 0.4903624 -0.045935743
-1.0358459 0.024703594 0.7438526 0.25994605 -0.41517618 0.25727028 -0.45291823 -0.30034965
-0.58038515 -0.8044858 1.0782803 -0.078463696 -0.380823 -0.012429552 0.25021014 0.74899834
-0.14065658 1.3098831 -0.1638161 -0.054028437 0.41750753 -0.18363796 -0.420204 -0.54181856
-0.019659283 0.22477213 -0.23656112 -0.72247446 -0.042089444 0.14559062 -0.26069307 0.2422751
1.4132272 0.026719028 0.26780626 -0.66377383 -0.26684067 -0.25612935 0.16153668 -0.11181086

Encoder_2.0.bias f4 [32]
00000000: 4ee1 cbbd de45 e9bc 71bb 83bd c051 963d
00000010: 8553 92bd 4702 723d bd95 a5bc 844c f43d
00000020: e10a 8abd ccde 3a3d d43f c33d b4c9 d63d
00000030: 781f 8fbc 00d5 fb3d db4d 3dbd 3d8c f83d
00000040: 694f 463d 7990 eabd 3cc2 d13d 8c5e babc
00000050: 35a9 bcba 9810 fc3d ec74 abbd 5ffb 673d
00000060: d0b6 4fbd 7e8d 093b c8b0 e7bc cc94 7abc
00000070: 1d8f 2e3d 5c9e b83a 8fdc 04be 3011 a3bd
-0.09955083 -0.028475698 -0.06432236 0.07339811 -0.07144836 0.059084203 -0.020213002 0.11928657
-0.06740356 0.045622632 0.095336586 0.104876906 -0.01747106 0.12296486 -0.046216827 0.12136123
0.048415575 -0.11453337 0.102421254 -0.022750162 -0.0014393689 0.123078525 -0.083719105 0.05663621
-0.050711453 0.0020988877 -0.028282538 -0.015294265 0.042616952 0.0014085281 -0.12974761 -0.07962263

Encoder_2.1.weight f4 [32]
00000000: 1332 963f af17 873f ac56 ca3f e468 a73f
00000010: 3046 3c3f 78cd 763f b5d4 663f b19e a53f
00000020: c3c3 8b3f 5ee0 483f f403 303f 5641 a53f
00000030: dc9a b63f 2070 663f 2736 5a3f a38b 803f
00000040: 5f3f 3b3f 1fed 923f 24b3 b83f 0eaa a23f
00000050: 6f4f 473f dcd4 773f ef1a 203f d872 a53f
00000060: 0d0e 513f 89fa b43f e5e3 8d3f d566 823f
00000070: 48cf 903f 3778 983f dc07 bc3f 8e7b 803f
1.1734031 1.0554103 1.58077 1.3078885 0.735446 0.9640727 0.90168315 1.2939054
1.0919117 0.7846736 0.6875603 1.2910564 1.4266009 0.9001484 0.8523888 1.0042614
0.7314357 1.1478614 1.4429669 1.2708147 0.7785558 0.9680917 0.625411 1.2925673
0.81662065 1.4138957 1.1085173 1.0187632 1.1313257 1.1911687 1.4689898 1.0037706

Encoder_2.1.bias f4 [32]
00000000: 8e9c e13e 0df9 7bbe 42b4 4ebf a05c aabe
00000010: 3908 f83f a74b bc3f dc78 e13f bf02 d33c
00000020: 89fc dfbd 0f8d 803f b0f9 5140 62e6 6b3d
00000030: d36f 183e 3f8f 573f 3e86 e93f 18d4 df3e
00000040: 7a80 513f c843 b13e 6543 283e e606 213f
00000050: 8ff2 0d3c 11d6 d93e 6753 fc3f 674c 283e
00000060: 4743 943f ece8 363e a19f 103f 9a2f 7a3e
00000070: e9a7 b93e 31a1 2f3e c746 6cbe f2f8 163f
0.44064754 -0.24606724 -0.807438 -0.33273792 1.9377509 1.4710587 1.7615008 0.025758145
-0.10936839 1.0043048 3.2808647 0.057592757 0.14886408 0.8420295 1.8244092 0.43716502
0.81836665 0.34622025 0.16431959 0.6290115 0.0086637875 0.42546132 1.9712952 0.16435395
1.1583031 0.1786229 0.56493574 0.24432221 0.36260918 0.17151333 -0.23073874 0.5897361

Encoder_2.1.running_mean f4 [32]
00000000: fdb0 15c1 d586 23c0 aaa2 3040 198d 13c0
00000010: f460 a7c0 33dd 5d40 0dfc 913f 37c5 7fc0
00000020: 2913 8dc0 9a67 e640 f8e9 92c0 c92e 1c41
00000030: 9343 4e3e c121 4f3e bccf cec0 5015 9540
00000040: 2fa6 e1c0 3e15 5dc0 e2c3 c040 ba3d 12c0
00000050: a9fc ec3f 30ef 843f 525f db40 5851 393f
00000060: 6947 0441 3b82 b53e 36af 51c0 2f22 3440
00000070: 72c3 3ec1 8402 d23d 5fcb 25c1 3032 fac0
-9.35571 -2.5551045 2.7599282 -2.305487 -5.230585 3.466626 1.1405045 -3.996412
-4.408589 7.2001467 -4.5910606 9.761422 0.20142965 0.2022772 -6.462858 4.6588516
-7.051536 -3.4544215 6.0239115 -2.2850175 1.8514606 1.0385494 6.855386 0.72389746
8.267434 0.3545092 -3.276319 2.8145864 -11.922716 0.10254386 -10.362151 -7.8186264

Encoder_2.1.running_var f4 [32]
00000000: d347 fe41 af08 c241 6a93 ac42 2492 8842
00000010: f959 7441 0a13 0542 0b42 0242 96aa 8242
00000020: 20ba 9642 194b 7c41 72b6 5e41 daae 6b42
00000030: 2ac7 1d42 e8a3 e441 84eb a341 b055 1042
00000040: 543b ab41 054c 6942 cfc3 7d42 6038 2942
00000050: 2cd9 1742 b735 1c42 c3a8 6941 99a7 3242
00000060: 76c3 b341 6daa 8342 2fe2 e941 ee06 c041
00000070: 9027 1c42 5c3e 1a42 8c39 b442 6425 0d42
31.78507 24.25424 86.28792 68.28543 15.271966 33.268593 32.564495 65.333176
75.363525 15.768334 13.919542 58.920753 39.444496 28.580032 20.489998 36.08368
21.403969 58.324238 63.44122 42.305054 37.962082 39.052456 14.603702 44.66367
22.47044 65.83286 29.235441 24.003384 39.038635 38.560898 90.1124 35.286514

Decoder.0.weight f4 [64, 32]
00000000: 08bc 013f a8e7 01be db63 cf3d 4c63 f33e
00000010: 2181 a13e d848 893c 8f6b bcbe 452b 4a3f
00000020: 1ff6 663f 9819 12be cf65 903f 4a96 56be
00000030: 3a18 a63e e5aa 04bf f249 a0bf 665b 883e
00000040: 8c9d 72bf 7162 2bbc febe 6abf cabf 38bf
00000050: fca2 833e a18d 653e 787b 42bf 5c77 44bf
00000060: 1b2d 0a3f b2dd 52be 0685 50ba c58b 143e
00000070: c7f3 8dbe 816c 06bd ae7d fc3e 477c d63e
00000080: 3804 93bf b6a9 2cbc cff0 1fbf 2293 d93e
00000090: 455a edbe 8267 353f 11e4 cebc a7e2 12bf
000000a0: 71ca dd3c 46f8 ea3e b462 b03e bd6a 3bbf
000000b0: b17b 903e 1041 43bf f34c 1a3c 6587 be3e
000000c0: 6c3c 93be 33f9 babe 7645 ea3d 1b42 2bbe
000000d0: a67c d7be 8241 cabe f810 0f3e 613d 09bd
000000e0: 3525 163e 897c fb3e b374 42bd 5b04 f9bd
000000f0: 9e8c 31bf 4055 1fbf 2590 b8be 7f26 433f
00000100: d9ce 80bd 95c3 d03f 685c 8abe cb04 323f
00000110: 8b2c e5be 9ebe 04be 854b 1b3e 4e8d a1be
00000120: 4893 2bbd 73e8 853e c911 0d3f 53f6 d83e
00000130: 00b3 b23d 47c7 0cbf ec97 b33e 0880 923e
00000140: 9337 c73e 2c06 92be 86be c73e e64c ee3c
00000150: 2000 063f 9786 7e3e fe46 ea3d cd9a c8be
00000160: 3eba c5bd 3e0e 9cbd d2b5 b13d c4c2 f2bf
00000170: 3317 d0be 723c 583d f639 96be 7adb 043e
00000180: f743 8ebe 2598 0c3d 718f 20bc 17a7 37be
00000190: 3a03 bb3e fc85 31bf 0284 3fc0 9846 cdbe
000001a0: 04cb 073f dad8 c33e e45a 5b3f eabf 1e3e
000001b0: 08b9 68be 838e be3e afb3 9e3e a6a2 1ebe
000001c0: 9096 07bf 16f3 263f c301 163e 1a4e e5be
000001d0: d96e bcbe 79e9 ae3e 048c df3d e306 d13e
000001e0: 94cf 22bf 477b 633e 7592 fe3e 5017 aabd
000001f0: 2033 8cbe 45d9 bdbd 059b 1ebf 0866 14be
00000200: bfe8 76be f4d2 133e 6256 ca3e 3318 3a3f
00000210: d73c 663d adf0 663d d6ec 53bd f0c5 343e
00000220: 171a 0c3e d65b cbbd de4d 893e 158f df3d
00000230: 5742 0abe 7168 9fbe 929e 443f c64f 00c0
00000240: 4757 a3be a9f3 dfbe 9921 e5be 7c8a 63be
00000250: 3bc3 3cbe 042c 20bf a8cf b63f edee 703e
00000260: f225 e03e 7850 db3e 59fe a0be 9d35 88be
00000270: 8842 d73f 0a71 ad3d 1962 023d fe98 83bf
00000280: 8637 2dbd 2b57 043e 820f dcbe a5bd 64bf
00000290: 7651 883e 8ea0 b7bb 406b 343a 6adc 3c3e
000002a0: 6d81 b0bf 970a 953e 084e cfbd 97d9 3a3f
000002b0: ae53 8fbf 952b eebd 16b3 d43d afb5 2b3e
000002c0: 3eae 19be dcc0 ae3e 3160 c53e a78d 1cc0
000002d0: dd3f 663e 71f9 ef3e 1c6c ec3d c23d a6bf
000002e0: 14bb c03e a1d7 d83e edf2 eebf 5f93 f13d
000002f0: 3a1e 10bf 9921 9d3e 0baa 87bf a862 10bf
00000300: 8899 523e df95 733e 4d8d c23d c802 3fbe
00000310: aaa8 e83f 8141 cd3d 5911 273f 6f80 cb3e
00000320: ac51 cabd cf89 263e 3519 163e f274 07bf
00000330: db24 57be 5c12 b1bd 281b 983e 9ab1 2d3e
00000340: 1a2c 1bbe 8be6 b1be 3f0c 32be c563 3fbf
00000350: fbbe b83e 3ca4 ae3d dda6 1ebf 70fa 8abd
00000360: 638c 4bbf 0037 6d3e 064a 4d3f c30e c7be
00000370: 01a4 e73e bdce 94be 0bcc 793e 8d97 a53d
00000380: 71a5 d9be e263 2fbe b810 343e 3303 1d3e
00000390: 5216 0abd 02a7 cebd 5ab1 173f 8010 453d
000003a0: 7b46 a43d c9ee 3cbe 2fea fd3f 27db 4dbf
000003b0: 7bac 3f3f e1f8 d43e b5f4 9e3f 9046 d8be
000003c0: aad1 c03e 081c a6be ffa1 123d 2249 b5be
000003d0: 8de4 ddbd ae3c 993e 2662 cbbe e356 75bf
000003e0: 742f 1f3e 1b37 743e 9f7c 3a3f 2d11 563e
000003f0: fdc0 0d3f 961d 19bf c32c 013f c3e8 07bf
0.5067754 -0.12686026 0.10126468 0.47536695 0.3154383 0.016758367 -0.3680081 0.78972274
0.902193 -0.14267576 1.128107 -0.20955768 0.32440358 -0.51823264 -1.2522566 0.2663223
-0.9477165 -0.010460482 -0.9169768 -0.72167647 0.25710285 0.22417308 -0.7596965 -0.7674463
0.53975075 -0.20592383 -0.00079543923 0.14506443 -0.2772505 -0.03281832 0.49314636 0.4189169
-1.1485662 -0.010538509 -0.6247682 0.42495066 -0.46357933 0.70861065 -0.025255235 -0.57377094
0.02707407 0.45892543 0.34450305 -0.73209745 0.2821937 -0.7627115 0.00941776 0.37212673
-0.28757036 -0.3651825 0.1143903 -0.16724436 -0.42087287 -0.39503103 0.13971317 -0.0335058
0.14662631 0.4911845 -0.047474574 -0.12159034 -0.6935519 -0.62239456 -0.36047474 0.76230615
-0.06289453 1.6309687 -0.27023625 0.69538563 -0.44760546 -0.1296334 0.15165527 -0.3155312
-0.041888505 0.26153907 0.55105263 0.4237543 0.08725548 -0.54991573 0.35076845 0.28613305
0.38909587 -0.28520334 0.39012545 0.029089402 0.5234394 0.2485603 0.11439322 -0.39180604
-0.096546635 -0.07619904 0.086772576 -1.8965688 -0.406427 0.05279202 -0.29341096 0.12974349
-0.27786228 0.034324784 -0.009799824 -0.17934833 0.365259 -0.6934507 -2.992432 -0.4009292
0.5304415 0.38251382 0.85685563 0.15502897 -0.22726834 0.37218103 0.30996463 -0.15491733
-0.52964115 0.6521467 0.1464911 -0.4478615 -0.3680332 0.341625 0.10915378 0.40825567
-0.6359799 0.22214995 0.49721113 -0.08305228 -0.27382755 -0.092699565 -0.6195529 -0.14492047
-0.24112223 0.14435941 0.3951903 0.72693175 0.056210365 0.05638187 -0.051739536 0.17653632
0.13681827 -0.09929626 0.2681722 0.109159626 -0.13501869 -0.3113437 0.7680446 -2.004869
-0.31902525 -0.43740585 -0.44752195 -0.22220796 -0.1843385 -0.6256716 1.4282122 0.23528643
0.4377895 0.4283483 -0.31444052 -0.26603404 1.6817179 0.08468826 0.031831834 -1.0281065
-0.04228928 0.12923877 -0.42980582 -0.89351875 0.2662465 -0.0056038564 0.00068824366 0.18443456
-1.3789498 0.29109642 -0.10122305 0.72988266 -1.1197412 -0.11629406 0.103857204 0.16768526
-0.15007874 0.34131515 0.3854995 -2.4461458 0.224853 0.46869996 0.11544058 -1.2987597
0.3764273 0.42352012 -1.8667885 0.11795687 -0.5629612 0.30689695 -1.0598768 -0.5640054
0.2056638 0.2378764 0.09499607 -0.18653405 1.8176472 0.100222595 0.65260845 0.39746425
-0.09878859 0.16263507 0.14658053 -0.5291282 -0.21010153 -0.0864608 0.2970822 0.16962281
-0.15153542 -0.34746203 -0.17387484 -0.7476161 0.36083207 0.08527419 -0.61973363 -0.067860484
-0.7951109 0.23165512 0.80191076 -0.3887845 0.45242313 -0.2906398 0.24394242 0.08085547
-0.42509034 -0.17127946 0.17584503 0.15333252 -0.033712693 -0.10090448 0.5925499 0.04811144
0.080212556 -0.18450464 1.9837092 -0.80412525 0.7487256 0.4159613 1.2418429 -0.42241335
0.3765996 -0.3244326 0.035799023 -0.35407358 -0.10834608 0.29929107 -0.3972332 -0.95835704
0.15545446 0.23849146 0.72846407 0.2090499 0.553726 -0.5981077 0.50458926 -0.5308954

Decoder.0.bias f4 [64]
00000000: 34a5 e5bd ea1d 113d 48d4 e53d 6bf4 953d
00000010: e80a 97bd cc2b a23d c7d0 0f3e 98d0 6c3c
00000020: 1c2f e9bd d48e 97bd b778 563d f1d4 95bc
00000030: 45cd b9bd 8c20 dc3d a840 acbc 1170 26be
00000040: da5f 13bd f690 463e 9ae5 c53a fc13 ebbd
00000050: 913b 10be 9eeb c33d d39b 60bd 9dab 1b3d
00000060: e87c be3d 3a4f 0d3e ae94 0f3e 5bff b33d
00000070: 16dc c33c 5f55 02be 21ca dcbd 709f 323e
00000080: e088 20bd da84 2e3d feb0 17be c9bf 74bd
00000090: 9378 dfbd 90ff acbd a4e4 0f3e a8ab 43bc
000000a0: ba36 f23b 5c76 e9bd 32ea 03be 333e e0bb
000000b0: cd8e f23d fef7 36be 9138 02be 83bf a53c
000000c0: 7b1c d339 0da2 59be b61e a13d 4be4 913d
000000d0: ed77 383d 97f1 0dbe f760 03bd 0475 fdbd
000000e0: 2a11 d23d 85f5 8dbc 1c74 57bd 849d e43d
000000f0: c221 a5bd c3ac 943d bca6 1dbe d4bb 013d
-0.112131506 0.03542892 0.1122213 0.0732201 -0.07375127 0.0791851 0.14044486 0.0144540295
-0.113859385 -0.07400289 0.052361216 -0.018290015 -0.09072355 0.10748395 -0.021026924 -0.16253687
-0.035980083 0.19391236 0.0015098334 -0.11478421 -0.14085223 0.09566425 -0.054836106 0.03800546
0.09301168 0.13799754 0.1402156 0.087889396 0.023908656 -0.12727879 -0.107807405 0.17443633
-0.039193034 0.042607166 -0.14813611 -0.059753213 -0.109116696 -0.08447182 0.14052063 -0.0119427815
0.007391778 -0.113995284 -0.12882307 -0.006843352 0.11843643 -0.17868039 -0.12716891 0.020232921
0.00040266276 -0.21253224 0.07867186 0.071236216 0.045036245 -0.1386169 -0.032074895 -0.123758346
0.1025718 -0.017328987 -0.052600965 0.11162856 -0.080630794 0.07259514 -0.15395635 0.031673267

Decoder.1.weight f4 [64]
00000000: 8618 b93e c7df 1b3e b61f 353e d304 db3e
00000010: 9132 0c3f 44d3 553f c6ff aa3e f23f 393e
00000020: 8d43 b43e bcea db3e a1d2 d13e 770d 863f
00000030: 0ff2 7d3e 5287 fd3e 8b7a 863e 86be c53e
00000040: 098b 8a3e 6484 ed3e 53ae 043f b38a 3c3e
00000050: 31a5 a23e 779d d03e bad4 7f3e 3c62 1f3f
00000060: 0089 cf3e 8872 273f 3068 ed3e 6fb8 f03e
00000070: 9fb1 353f acda 513e 2644 593e f925 6a3e
00000080: fece 0f3f 321a 493f d237 973e 5f5f cf3e
00000090: 0fea 0b3f e103 d73e f686 5d3e 3de7 8f3e
000000a0: 1357 5d3e 359d 0c3f f2b5 0c3f 5b78 223f
000000b0: 2583 2d3f 2849 b03e f031 ed3e 7436 2c3f
000000c0: bed0 3c3f cf9e 043f 8c7f c73e 879a 9a3e
000000d0: 1e39 9c3e cdbd b73f 0dfb 253e 579f 963e
000000e0: 8583 e03e cc85 593e c7c3 313f 7ed0 be3e
000000f0: 4e03 da3e a786 a33e 2696 ce3e 9c0d 103f
0.36151522 0.15222083 0.17687878 0.42777118 0.5476466 0.8352549 0.33398265 0.180908
0.35207787 0.42952526 0.4098101 1.0472859 0.2479937 0.49517304 0.26265368 0.3862192
0.270592 0.4639007 0.518285 0.18412285 0.31766656 0.40745136 0.24983492 0.6225927
0.4053421 0.65409136 0.4636855 0.47015712 0.70974153 0.20493573 0.21217403 0.22866048
0.5617522 0.78555596 0.29534775 0.4050245 0.5465402 0.41995147 0.21633515 0.28106108
0.21615247 0.5492738 0.54965127 0.634649 0.67778236 0.34430814 0.46327162 0.6727059
0.73756015 0.5180482 0.38964498 0.3019602 0.30512327 1.4354798 0.1620905 0.29418442
0.4385034 0.21242446 0.6943936 0.37268442 0.42580646 0.3193867 0.4034893 0.56270766

Decoder.1.bias f4 [64]
00000000: f2fa 0b3d dd79 10be faa3 a0bc 8428 88bd
00000010: b456 42bd 3004 80bf a4a0 103c 55cb 7ebb
00000020: 67b4 dfbe 9ad3 d9bd 84f0 01bd 3b67 29bf
00000030: 9437 383c a7ba 913d 33b4 7dbe e00a 8c3d
00000040: a000 fcbd 599b 3cbd 9b16 dabe d28b 8b3b
00000050: 8fd8 63be 0b7b 8eba 1254 88bc 4ac5 86bd
00000060: d2b1 afbe 0b4b 433e ca65 87bf f8d2 e43d
00000070: 3d6b f0be a0c5 26be 95c3 963d 04cb 21be
00000080: 74e5 f13e df5a 23bf 773d 13bf 3c3c 923b
00000090: 68b3 58be 7d9b 9e3d 4b8a 67be 4542 48be
000000a0: 5a47 47bd 67cf a3be f641 22bf 3d11 b33d
000000b0: 9c85 62bf a5e8 dbbd c725 48bf 79e2 49bf
000000c0: e6fe 6fbf a2d5 a73d ef92 ddbc ef88 e8bc
000000d0: 98ad 7abe 748e cbbf 19f4 99bb 7a8f 12bf
000000e0: 76fa 24bc 72e6 10be 87f7 93be 4249 b8bd
000000f0: 9407 05be 4458 d9be 81d3 0e3d 7675 213e
0.034174867 -0.14108987 -0.01960944 -0.06648353 -0.047445968 -1.0001278 0.008827362 -0.003887852
-0.43692324 -0.10636063 -0.031723514 -0.6617314 0.01124372 0.07115679 -0.24775772 0.06838012
-0.12304807 -0.04604659 -0.42595372 0.0042586112 -0.2225058 -0.001087041 -0.01664165 -0.06580599
-0.34315354 0.19071595 -1.0577939 0.111730516 -0.46956816 -0.16286325 0.07361523 -0.158001
0.4724537 -0.63810533 -0.5751566 0.004462747 -0.21162188 0.07744501 -0.22611348 -0.1955653
-0.04865203 -0.31994173 -0.633819 0.08743522 -0.8848512 -0.10737733 -0.78182644 -0.78861195
-0.9374832 0.08195044 -0.027047602 -0.028385608 -0.24480283 -1.5902848 -0.004698288 -0.5725018
-0.01006948 -0.14150408 -0.28899786 -0.08998348 -0.12991172 -0.42450154 0.034869675 0.15767464

Decoder.1.running_mean f4 [64]
00000000: 1d8c 30bf 6c51 5dbf 745d e53f 151d 25c0
00000010: 38cd 4e40 38a1 94c0 87d9 7540 3c61 0d41
00000020: ecd2 ac40 62ee f6c0 76c5 f13f a223 60c0
00000030: e35f 43bf 0f08 8840 4df1 97be 4f02 3e40
00000040: fd64 cdbf 4ed8 4fc0 0528 24c0 f3aa eec0
00000050: bf07 dfbf d856 583f a948 b03f 54a1 2040
00000060: 064d 66c0 ab8c dd40 4ea2 023f 74aa 6c40
00000070: cabb 14c1 c18e 52c0 0f7e 7abf 378c 6abf
00000080: 3367 8bc0 9b97 b3c0 bb6a 0340 0b44 03bf
00000090: a794 9dc0 9a7b 97bf 0938 8740 e2fd 18c0
000000a0: 6a35 7d3f 22af 18c0 5916 fcc0 f3e4 b43f
000000b0: d7fb 37c0 f8b8 84c0 4f5a 0ebf dd70 93c0
000000c0: 398a 97c0 c9e4 2abf a7b8 5ac0 c051 0541
000000d0: d01b 5ebe 06cc 59bf 3195 b8bf 9968 c840
000000e0: e9b5 aa3f ce0c 6840 41cb 96bf 8dc9 9240
000000f0: 0590 8bbf 111e aa3f 40e4 bbbf b760 2640
-0.68963796 -0.86452365 1.7919145 -2.5799 3.2312756 -4.64468 3.8414018 8.836239
5.4007473 -7.7165995 1.8888385 -3.5021749 -0.76318187 4.2509837 -0.29676285 2.968891
-1.6046444 -3.2475772 -2.5649426 -7.458368 -1.7424239 0.84507513 1.3772174 2.5098467
-3.5984511 6.9234214 0.5102891 3.6979036 -9.295847 -3.289963 -0.978486 -0.916202
-4.3563476 -5.6122565 2.0533893 -0.512757 -4.924396 -1.1834595 4.22559 -2.3904958
0.9890963 -2.3856893 -7.877728 1.413237 -2.874746 -4.147579 -0.5560655 -4.6075273
-4.735623 -0.6675535 -3.4175203 8.3324585 -0.21690297 -0.8507694 -1.442053 6.2627683
1.3336765 3.6257815 -1.1780778 4.5871034 -1.0903326 1.3290426 -1.4679031 2.599653

Decoder.1.running_var f4 [64]
00000000: 906c e240 4b16 ed3f 6948 3240 671f 0d41
00000010: 7b56 0c41 e292 8142 1360 9040 d1f8 5140
00000020: 1faf 6540 533b 9c40 bc6e b440 7c1f 9e42
00000030: a158 8e40 f0db 3241 0446 c240 0b78 e940
00000040: 96d7 2640 f649 0d41 70d5 2341 b8f5 3840
00000050: 2d80 0641 c07e b540 af88 8940 2bf0 5841
00000060: 1a5e ad40 7eb5 c841 348d 0a40 330d 2041
00000070: e9ab a540 7ea1 1640 a101 1d40 52d1 3340
00000080: 8845 aa41 eb25 9141 1e39 1e40 87e4 b840
00000090: 437d 2441 0246 0a41 e218 2e40 9dc0 6c41
000000a0: c5d9 2041 5c0a 4e41 be73 3041 1107 7441
000000b0: d2be b840 a16b 9d40 0a29 4f40 f7f1 5742
000000c0: d385 a542 409f c941 b21a b540 4adc be40
000000d0: 90a4 2e40 e9a5 8141 5910 3d40 c427 3940
000000e0: b4c3 1341 9645 f640 2c6d 3341 f695 cc40
000000f0: 01f3 1741 671b 3740 066f b840 c866 4041
7.0757523 1.8522428 2.7856696 8.820167 8.771113 64.78688 4.511728 3.2808115
3.5888135 4.8822417 5.6385174 79.06149 4.448319 11.178696 6.071047 7.2959037
2.6069083 8.830557 10.239609 2.8899975 8.406293 5.6717224 4.297935 13.558635
5.417737 25.08862 2.1648684 10.003222 5.177235 2.3536067 2.4532244 2.809651
21.28395 18.143515 2.4722362 5.7778964 10.280581 8.642092 2.7202687 14.797025
10.053166 12.877529 11.028257 15.251725 5.7732935 4.9193883 3.2368798 53.986294
82.761375 25.202759 5.6595087 5.9643908 2.728794 16.20601 2.9541228 2.893052
9.235279 7.6959944 11.214153 6.393306 9.496827 2.8610475 5.7635527 12.025093

Decoder.3.weight f4 [16, 64]
00000000: be4b aabc 4088 913d dbbe 043e 37be 483c
00000010: 0444 55bf f748 15bf 4482 76be c8f5 0c3e
00000020: 4bd4 a83d b8f2 693c 7ac1 553e f381 683f
00000030: 72ed fe3e 9b5f bc3e ddb3 653d 0762 27bd
00000040: a5fa ac3e fd38 b5be f386 b63d 0c6d 01be
00000050: 1b20 18be a6ec 63bf 3a80 d6be fa7d b13e
00000060: b626 cf3d 0c4a 83bc 56cf a4bd e95c 763e
00000070: 622f 8a3e 8d5f 933c 4b3c ffbe 75d4 973d
00000080: 54ec 9e3d f3ba 5e3e 3f9a 02be 01d5 663f
00000090: 5942 f6ba 66bb 5d3f 4e8e 8abe 5b42 623e
000000a0: 4f86 67bd 9e50 bfbd bee2 87be 17e9 01be
000000b0: ad07 933b fe4c c0bd f8d3 33be 7ff3 b9be
000000c0: 7741 05bf 2673 033f bdb4 803e 7a1e 8d3d
000000d0: 1792 e3bd f082 943d 3b37 11be 6ffd 69be
000000e0: bb6d fb3c b04a e0be 79f4 2e3e cdf7 33be
000000f0: 054a 6fbd 9c22 1dbe 6c86 78be b2f4 e83d
00000100: e557 d7bc 06db 0f3d e18b d0bd 9073 d03e
00000110: 2f12 1dbf 93c4 c7be bd5e 043f 1ccf 9bbd
00000120: 996a 9ebd c410 7b3d 485d 773e a91f 2f3f
00000130: 807b 323f f316 0a3f 77e4 45be 12be febe
00000140: 74d1 4e3b 5f54 08bf 3588 5dbb 47c4 b33d
00000150: 5c60 883e cf60 423f a381 2fbf 578a 8bbe
00000160: 2368 38bd f4c7 f93d c7f8 37be 2abb 273e
00000170: 7824 a03e 67e9 313e f126 aabc df3f 9b3a
00000180: 2f72 b1be dd8d 5f3e 5720 4dbe e360 40bf
00000190: 9a7d 523e 2265 1d3f c515 4f3e 0001 0ebe
000001a0: 3de6 dcbd 9d21 7b3c e9c1 aabe d27e 153f
000001b0: 1ce3 ddbd 33a2 953d a36e 3c3f ee15 74be
000001c0: 1f90 33bf 938b 423e 894b 0abf d659 983b
000001d0: 50e6 3b3e 25d2 353e db43 a93d 4b87 8cbe
000001e0: e52d 65bc 89b3 b73c 273c 273d d386 003e
000001f0: de56 bebe ee89 7cbe 5d75 62be 354e 763e
00000200: 2305 e2be 6bb1 843d 48d2 93bd dea6 f7be
00000210: 44f2 fa3d 341d c9be f062 5fbf 5d19 a7be
00000220: ef8b a2bc e152 3f3e a4da 1a3f 16fc 203f
00000230: d262 083e f98c 263f e48f 83bc 3931 083f
00000240: c253 8e3c 61e4 2dbf 31a5 013e 9b3a af3e
00000250: 61d7 0c3d 8289 aa3e c223 debd 8953 bd3d
00000260: cb0f 0dbc 606f c53d 8de6 1fbf 78be 653c
00000270: eb05 953e d14a 843c ee73 c93d 6100 11be
00000280: 28fb a4be 213e 773e a928 22bd e40b a7be
00000290: edac 033e 2f8a e7bd eeeb 9b3e ee0f c73d
000002a0: cf50 82be 3437 fd3d f4e6 7abe c267 9d3e
000002b0: 948f 513d c949 e8bd 6330 58be 66c2 59bf
000002c0: ae77 c2be 9d2c 06be d05f 6c3f 1280 243d
000002d0: 14dc ddbd 4d39 493e e558 b83c c2ca 4cbe
000002e0: 432a cf3e 8f6f 00be 760a 903d 7d4e a1be
000002f0: 7a77 20bc 3735 633c 721e 10bf 4cfe 0f3f
00000300: 2cb3 b5be df42 9fbd dffa 98bd d83a 84bf
00000310: c095 9abe f34d 0bbf 5d14 133f 3fdd 31bd
00000320: 1eb6 c33c 0159 573b 6dd7 b23e 6da9 303f
00000330: d545 bcbd 718a 8fbe 87d9 b9bd 7a8f 953f
00000340: fe7e 8dbd b977 a23e f022 b3bd 12c1 913d
00000350: 7e2f fabd 1ce1 d23d 5329 bc3d dbc2 353e
00000360: 1103 3b3d 8e09 943e b0e0 abbf 8cae 433e
00000370: f232 673e 29dc 8a3d dc80 0b3e b52e 533e
00000380: 56b5 12bf b5c4 6f3e 89b2 ccbd 2cc3 c1bd
00000390: 99b6 823d 2f60 9f3e 8e07 093e 2e87 cebd
000003a0: 7877 d63e 47c7 3abe bf3a bdbe 1444 543e
000003b0: 08c9 363e eb20 393e 3803 a43d dd45 a4be
000003c0: 07cc d0be ead8 f03e ae54 14bf b494 f3bc
000003d0: 5be8 3b3c 8270 8d3d b4c7 8d3d 0c36 303c
000003e0: 8132 bf3e 820c 5e3e dbf8 c63c 4f48 903d
000003f0: ce86 acbd 09f6 a5bd f779 a7be d55b 88be
-0.02078807 0.07106066 0.1296343 0.012252382 -0.8330691 -0.5831446 -0.2407313 0.13765633
0.08243617 0.01427906 0.20874587 0.90823287 0.4979053 0.3679169 0.056079734 -0.04086497
0.33784977 -0.3539504 0.08912458 -0.12639254 -0.14855997 -0.8903297 -0.41894704 0.34666425
0.101148054 -0.01602652 -0.08047359 0.2405888 0.26989275 0.017989898 -0.49850687 0.0741357
0.0775992 0.21751003 -0.12754153 0.9016877 -0.0018788084 0.8661407 -0.27061695 0.22095625
-0.05652457 -0.093415484 -0.26540178 -0.12686573 0.004486999 -0.09389685 -0.17561328 -0.36318585
-0.52053016 0.5134758 0.25137892 0.068905786 -0.11111849 0.07251537 -0.14181225 -0.22850583
0.030691972 -0.43806982 0.17085446 -0.17574997 -0.0584202 -0.15345234 -0.24270028 0.11374797
-0.026287029 0.035120986 -0.1018293 0.40713167 -0.6135587 -0.39017162 0.5170706 -0.07607862
-0.07735176 0.061295286 0.24156678 0.68407685 0.69719696 0.5394127 -0.19325434 -0.49754387
0.003155795 -0.5325374 -0.003380311 0.08777671 0.26636016 0.7592897 -0.68557185 -0.27253982
-0.045021188 0.12196341 -0.17965995 0.16379991 0.31277823 0.17374192 -0.020770522 0.0011844597
-0.34657428 0.2183146 -0.20031868 -0.7514784 0.20555726 0.6148244 0.20223148 -0.13867569
-0.10786102 0.015327838 -0.33351067 0.5839664 -0.10834333 0.07306328 0.7360632 -0.2383649
-0.70141786 0.18998556 -0.5402151 0.004649381 0.18349576 0.17755945 0.082648955 -0.2744697
-0.013987993 0.022424476 0.04082885 0.12551431 -0.3717565 -0.24661991 -0.22115083 0.24053271
-0.44144544 0.06479152 -0.07217842 -0.48369497 0.1225324 -0.39280093 -0.8726034 -0.32636538
-0.019842116 0.1868396 0.6048987 0.6288465 0.13318947 0.6505886 -0.016059823 0.5320011
0.017373923 -0.67926604 0.12660672 0.342244 0.03438509 0.33308035 -0.10846664 0.09244449
-0.008609722 0.09640384 -0.6246117 0.014022462 0.29106078 0.016148956 0.09836565 -0.14160301
-0.32222867 0.24144794 -0.039589558 -0.3262626 0.12858935 -0.11305653 0.30453438 0.09719835
-0.25452277 0.12364045 -0.24502164 0.30743223 0.051162317 -0.113421984 -0.21112208 -0.85062253
-0.37981933 -0.13102956 0.923337 0.0401612 -0.10832992 0.19650765 0.022503326 -0.19999221
0.4046193 -0.12542556 0.07033245 -0.31505194 -0.00979411 0.013867668 -0.56296456 0.562474
-0.3548826 -0.077764265 -0.07469725 -1.0330458 -0.30192375 -0.54415816 0.57452947 -0.043423887
0.023890551 0.0032859447 0.34929982 0.69008523 -0.09193007 -0.2803531 -0.09074693 1.168441
-0.069089875 0.31731966 -0.08746898 0.07116903 -0.1221609 0.102968425 0.091875695 0.17750113
0.04565722 0.2891354 -1.3427944 0.19109553 0.22578028 0.067802735 0.13623375 0.20623286
-0.57307947 0.23414882 -0.099949904 -0.09461054 0.06382484 0.3112807 0.13381788 -0.10084377
0.41888022 -0.18240081 -0.36958882 0.20729095 0.17850125 0.18078963 0.080084264 -0.3208455
-0.4078066 0.47040492 -0.5794171 -0.029733993 0.011468972 0.06906225 0.06922856 0.010755073
0.3734322 0.21684459 0.024288585 0.07045042 -0.084241495 -0.08103568 -0.3271024 -0.26632562

Decoder.3.bias f4 [16]
00000000: 9aa7 7bbe 16e3 0dbe b398 fdbd 187d 9abd
00000010: 8e88 63be 6802 8bbe 105b 83be 084d 35be
00000020: ac2b 87be 112d 94be aebe 8dbe 3d5a 45be
00000030: 0576 a9be a7db 4bbe b23e 81be d3d5 04be
-0.24575654 -0.13856158 -0.12382641 -0.07543391 -0.2222006 -0.27150273 -0.25655413 -0.17705166
-0.26400506 -0.28940633 -0.2768454 -0.19272704 -0.33097854 -0.1990801 -0.25243145 -0.12972192
