best_model.pth (torch_old, 31487 bytes, 20 tensors)

Encoder_1.0.weight f4 [64, 16]
000000 3a 2d a7 3f 2d c4 51 3f 7d 6f c9 be 0e 32 fc 3f
       1.3060677 0.81939965 -0.3934287 1.9702775
000010 66 38 b7 bd 82 86 f2 be 24 25 08 3f 8e db 5b 3f
       -0.08946304 -0.47368246 0.5318167 0.8588189
000020 5d 5a 5d be d2 34 a9 be 1d df 7b 3f c8 aa 2e 3f
       -0.21616502 -0.3304811 0.9838732 0.6822934
000030 2b 3a e6 3e c0 d8 a1 3e 15 28 16 3f 2c 1d ad bd
       0.44966254 0.3161068 0.5865491 -0.0845283
000040 0e 66 87 3f 7e 1f a1 bf 50 db 90 be fa c0 2b 3f
       1.057802 -1.2587736 -0.28292322 0.67091334
000050 2b af 9b be 28 bb 1f bd f8 bb 0d bf de 8a 25 3f
       -0.3040708 -0.038996845 -0.5536494 0.6466502
000060 73 fc 45 3e 9e 52 43 3e da eb 38 bf 30 d3 2e 3f
       0.19334583 0.19074485 -0.7223488 0.68290997
000070 66 ac 31 3f 2b 09 98 bf d0 e9 fc be 4c 84 5d 3f
       0.69403684 -1.1877798 -0.49397135 0.86529994
000080 51 ec 7e 3f e2 ed aa bf a0 04 10 bf 38 dd 6f 3e
       0.9957934 -1.3353846 -0.5625706 0.23424232
000090 98 ad f4 3e 04 e5 b0 bd d8 f4 3f bf 0a a5 7a 3f
       0.47788692 -0.08637431 -0.74982977 0.9790808
0000a0 b9 c2 10 3e 63 74 b1 be 1d 0d 01 bf 28 a0 7f 3f
       0.14136781 -0.3465911 -0.50410634 0.99853754
0000b0 20 06 33 bf c2 5a 5b be b2 68 59 3e df b8 28 3f
       -0.6993122 -0.2142134 0.21231344 0.6590709
0000c0 a4 14 5d be c9 d6 8e 3f fc f6 fd be d0 03 4f 3f
       -0.21589905 1.1159297 -0.49602497 0.8086519
0000d0 0f 69 1f 3d 52 e7 ce be df b5 e4 bc fe e6 cf be
       0.03891855 -0.40410858 -0.027918754 -0.4060592
0000e0 7c 15 dc 3d 58 64 0b bf ee 30 9d 3e 27 8e c2 be
       0.10746285 -0.5444999 0.30701393 -0.3799908
0000f0 e7 cc 72 3f ab b9 5e c0 41 8a 02 3f 87 51 2b 3f
       0.94843906 -3.4800823 0.5099221 0.66921276
000100 63 37 30 3f 9a 78 85 3f a8 5a a8 3e 5f 36 62 3f
       0.68834513 1.042743 0.32881665 0.88364214
000110 0b fc 45 bf b9 88 99 bf e4 87 ce 3e 76 e9 25 3f
       -0.7733771 -1.199485 0.4033805 0.6480936
000120 f1 00 39 bf ab a1 9d bf c7 a2 3e 3d 01 02 9a 3e
       -0.7226706 -1.2314962 0.046541955 0.30079654
000130 2c d1 57 bd 4b f4 51 3f 80 7d 89 bf fa de 90 bf
       -0.052689716 0.82013386 -1.0741425 -1.1318047
000140 26 b5 dc 3d 29 61 e1 3b ab ba 98 3c ec d2 4c 3d
       0.10776739 0.0068780375 0.018643698 0.05000584
000150 fe 61 19 bf 08 94 a1 bd ab 43 d8 be 42 7f 6b be
       -0.5991515 -0.07889563 -0.42239127 -0.22997764
000160 0a a4 ec be 7c 44 44 be 54 37 85 be bf 89 a0 be
       -0.46218902 -0.1916675 -0.26018775 -0.31355092
000170 11 a0 18 3f 62 45 b3 3c 1a 61 4d 3f ce ee 2c c0
       0.5961924 0.02188367 0.8022629 -2.7020755
000180 b9 b0 25 bf 7a 07 c7 bf d0 95 52 bf 74 32 f3 3e
       -0.6472278 -1.5549157 -0.82259846 0.4749943
000190 10 f8 70 3e 1d ec 25 be fd 7a b9 3f d1 c8 04 3f
       0.23532128 -0.16203351 1.4490658 0.5186892
0001a0 44 ad 01 3f bf e6 3c 3e 7c 6a a5 3f 6b 40 47 3e
       0.5065501 0.18447398 1.2923121 0.19458167
0001b0 ed a6 53 3f 71 da bc 3e c5 de 86 be f3 04 40 3d
       0.82676584 0.36885408 -0.26341835 0.04687972
0001c0 e2 8b 35 bf 4d 34 88 3f c2 fd 9c bb d3 01 29 3f
       -0.7091657 1.0640961 -0.0047909925 0.6601841
0001d0 29 3b b2 3e bf 84 2b bf 04 c2 d2 be 34 4b 37 3f
       0.3481076 -0.6699943 -0.41163647 0.71599126
0001e0 9c 6a 5a 3f 88 9f d7 be 46 f6 74 be c8 09 6a 3f
       0.85318923 -0.421139 -0.23922071 0.91421175
0001f0 63 af 9d 3f f0 62 1e bd 62 c1 89 bf 22 d1 3a be
       1.2319149 -0.038668573 -1.0762141 -0.1824384
000200 42 f9 88 3f 44 9e be bc 16 ef 3b 3f 27 b1 93 3f
       1.0701067 -0.023268826 0.7341169 1.1538438
000210 74 4f 57 bf e6 38 27 bf c5 52 ab be 52 d2 85 be
       -0.8410561 -0.65321195 -0.33461586 -0.26137024
000220 fa c5 54 bf 87 e7 c6 be d1 41 5a be 1d e9 63 be
       -0.8311459 -0.38848516 -0.2131417 -0.22256894
000230 db e2 1d bf 99 9c 96 3f 21 fa 18 bf c2 50 15 bf
       -0.6167428 1.176654 -0.59756666 -0.5832635
000240 15 48 9d 3f 35 16 b7 3f b5 38 67 be 9c 7a 31 3e
       1.2287623 1.4303652 -0.22580226 0.17331928
000250 89 e1 06 bf 70 d3 74 3f 3d d2 d6 3e 64 63 62 be
       -0.5268789 0.9563513 0.41957274 -0.22108227
000260 00 73 3d bf ec dd 7c 3f d4 9d 80 3f 7b fd a3 3d
       -0.740036 0.98776126 1.0048165 0.08007332
000270 fc c1 9a 3c c8 02 98 be b0 3e 6c 3e d6 b3 6f 3f
       0.018891327 -0.29689622 0.23070788 0.9363378
000280 27 da 4a bf b3 6b 90 be 18 6f 0c 40 25 58 7b 3f
       -0.79239124 -0.28207168 2.1942806 0.9818137
000290 f0 35 52 bf e7 fa f6 3e ad fc 1d bf 3f 09 5f 3f
       -0.8211355 0.48238298 -0.6171368 0.87123483
0002a0 95 d3 28 bf 43 20 d9 3e 88 33 00 bf 02 e5 51 3f
       -0.6594785 0.42407426 -0.5007863 0.81990063
0002b0 bb 57 de 3e 33 0e 0b be fe 32 a6 3e 5e 9f bf be
       0.43426308 -0.13579635 0.3246078 -0.37426275
0002c0 1e 25 c1 bf 12 ea 86 be 7b df 43 be f1 99 64 bf
       -1.5089452 -0.26350456 -0.1912822 -0.89297396
0002d0 5f 12 43 be 26 7b 38 3f cd 6c 03 be 15 e7 54 3f
       -0.19049977 0.7206291 -0.12834473 0.83165103
0002e0 8f 0b 66 be 73 f6 6b 3f 02 3d 10 39 60 93 23 3f
       -0.22465347 0.92172927 0.00013755637 0.6389675
0002f0 ab 8d 91 be 74 0d 42 3f 97 02 2f bf d0 05 35 3f
       -0.28428397 0.7580178 -0.68363327 0.70711994
000300 84 b9 fc 3d aa 56 07 bf f6 73 d1 3f e0 70 12 3e
       0.12340072 -0.52866614 1.6363513 0.14300871
000310 f2 44 7a 3e 83 a6 2f bf b8 a9 a6 3f cf 02 b8 bd
       0.24440363 -0.6861345 1.3020544 -0.08984911
000320 c2 ae 49 bd 89 c3 3a bf 08 0c a7 3f 55 0c 9b be
       -0.049238928 -0.7295461 1.3050547 -0.30282846
000330 d8 a8 53 bf 08 90 46 bf 7e 27 1d 3f 37 3e eb be
       -0.8267951 -0.77563524 0.61388385 -0.45945904
000340 df 8e b8 3f b4 c1 73 3f 57 42 33 3e 06 62 7d 3f
       1.4418601 0.9521744 0.17505775 0.98977697
000350 d6 c1 b3 bd 4a 62 f5 3e 1a f9 52 3f a9 8b 20 bf
       -0.08777206 0.4792655 0.8241135 -0.62713104
000360 3a d2 8f 3e 0c 92 a1 3e 60 57 19 3f fe ac 1d bf
       0.28090078 0.31556737 0.5989895 -0.6159209
000370 48 e6 ed bd ac 2b 6d bf 53 19 98 bf 32 1f ab 3c
       -0.11616188 -0.92644763 -1.1882728 0.020888899
000380 6d 03 98 3e 45 73 9d 3e 85 d2 d2 3d b8 f0 3e 3e
       0.29690114 0.30752006 0.1029406 0.18646514
000390 68 76 53 3f 18 da 94 3e d3 f5 2d 3f fc 41 84 3f
       0.8260255 0.29072642 0.67953223 1.0332637
0003a0 02 d3 4c 3d ec 6e d6 3d 0e 7e cc 3e 8c c5 4a 3f
       0.05000592 0.104703754 0.39939922 0.7920768
0003b0 ec ba b1 bf 8f 0e ab 3e 5d 2d c3 be 9d 7e 99 bf
       -1.3885169 0.33409545 -0.38120547 -1.1991764
0003c0 8d 6c f7 be 76 8c 46 bf f4 06 1d be 48 74 61 3f
       -0.48325005 -0.77558076 -0.15334684 0.88068056
0003d0 99 23 f7 3d 35 d3 a9 bd 8a 6f b1 be f9 7c 5f bf
       0.120673366 -0.08292238 -0.3465541 -0.8730007
0003e0 1c 21 5b bb f9 0a d2 be 30 39 df bc 43 64 65 bf
       -0.0033436483 -0.41023996 -0.027248949 -0.8960611
0003f0 9c 17 b1 bf df 11 b9 be 30 32 90 3f 5c de 92 be
       -1.383533 -0.36146447 1.1265316 -0.28685272

Encoder_1.0.bias f4 [64]
000000 35 6e 8f 3c 5b 7a 04 3e 76 4e 3d be bb 2c 4e be
       0.017508605 0.129373 -0.18486962 -0.20134251
000010 47 06 51 3e 21 9d 05 be 6e 7f 02 3e fe 8d d5 bd
       0.20412551 -0.13048221 0.12743923 -0.104274735
000020 88 15 cc 3d 99 60 b8 bd 1d cc 49 3b 72 53 cf bd
       0.09965044 -0.090027995 0.0030791827 -0.10123338
000030 95 de 36 bd b6 6c b0 3c ae 24 d2 bd 94 02 67 3e
       -0.044645865 0.021536212 -0.10260902 0.22559577
000040 db 83 b0 3d 9b 2e d9 3d 57 40 2d bd 6f 36 41 3d
       0.086188994 0.106045924 -0.042297687 0.047171053
000050 88 c2 15 bd 13 ed 30 3e 80 a9 e2 3d b4 2f 28 be
       -0.036562473 0.17277937 0.11067486 -0.16424447
000060 bb 8b 55 be 18 55 7d bd af 80 c1 bd af bb b8 3d
       -0.20854084 -0.06184873 -0.094483726 0.09020173
000070 5e 50 2e 3e b3 07 97 3d 46 c5 ab 3d 2e 1e 0b ba
       0.17022845 0.073745154 0.08387236 -0.00053069263
000080 2f 63 bf 3c fd d6 1b 3e a3 d6 45 bd f5 2d 62 3d
       0.023362724 0.1521873 -0.048300397 0.05521961
000090 26 2d 25 3e 54 b7 0d 3d d1 d0 ab bb d1 27 1b 3e
       0.16130504 0.034598663 -0.0052433987 0.15151908
0000a0 61 52 d3 bd 3a 8d ad 3d 8b 96 0b be cb 3b 17 3e
       -0.10318447 0.084742025 -0.13631646 0.14768903
0000b0 c5 bd d3 b9 cf a8 60 3e 53 80 8f bd 59 53 f1 bd
       -0.00040386445 0.21939395 -0.07006898 -0.117834754
0000c0 8f 76 88 3d 86 d5 1e bd 37 03 df 3d 54 91 59 be
       0.06663238 -0.03877785 0.10889285 -0.21246845
0000d0 8d e0 f7 bc 34 16 ea bd 76 a8 98 bd 29 66 a0 3c
       -0.030258441 -0.11430016 -0.074540064 0.019579964
0000e0 41 57 b1 3d 74 c6 2b be cf 8c 54 3e 5a d1 ac 3d
       0.086592205 -0.16774923 0.20756839 0.08438368
0000f0 b9 2d 79 be 65 99 21 3e b7 f0 46 3e eb 5a aa bb
       -0.24333848 0.15781172 0.19427763 -0.0051988265

Encoder_1.1.weight f4 [64]
000000 ef 51 88 3f 62 8a 69 3f 5b 1a 95 3f 96 99 d2 3f
       1.0650004 0.9122678 1.1648668 1.6453121
000010 c5 05 44 3f 44 dc d9 3f 7b dd 2d 3f c9 d0 3e 3f
       0.76571304 1.7020345 0.6791608 0.7453733
000020 ae 5d 94 3f be 8a a2 3f bc 45 67 3f 86 66 21 3f
       1.1591089 1.2698591 0.9034078 0.63047063
000030 94 e1 35 3f fd f6 81 3f 21 60 b2 3f 08 89 83 3f
       0.7104733 1.01535 1.3935586 1.0276194
000040 0a 71 88 3f 27 4d a4 3f f8 fc a0 3f 4b d1 ad 3f
       1.0659497 1.2836045 1.25772 1.3579496
000050 6b 2a ce 3f 99 6a ca 3f 29 0d 69 3f 2b 7d 96 3f
       1.6106695 1.5813781 0.91035706 1.1756948
000060 a6 81 a6 3f 59 70 e6 3f aa 1d 5d 3f af b5 70 3f
       1.3008316 1.8003036 0.8637339 0.9402723
000070 3b ab 9d 3e f1 c0 23 3f 8e 57 ba 3f 34 c2 cb 3f
       0.307947 0.6396628 1.455797 1.5918641
000080 d4 38 ab 3f 59 e2 79 3f 14 35 43 3f b5 b2 78 3f
       1.3376718 0.97611004 0.76252866 0.97147685
000090 0b 78 09 3f 66 8a 5c 3f f8 ec ab 3f 78 a9 b2 3f
       0.53698796 0.8614868 1.3431692 1.3957968
0000a0 d8 2f 5c 3f 29 0f 62 3f 80 9d 5f 3f 7b 62 70 3f
       0.86010504 0.8830438 0.873497 0.9390027
0000b0 7e f6 8a 3f d9 7c 04 3f 6a 60 4d 3f 12 61 d5 3e
       1.0856473 0.51753 0.8022524 0.4167562
0000c0 17 0b c2 3f 88 74 49 3e 15 cc 73 3f 21 a5 f9 3e
       1.5159634 0.1967336 0.9523328 0.48758796
0000d0 50 b6 89 3f 9c da 25 3f db dc c5 3e dc c4 6f 3f
       1.0758762 0.64786696 0.38645062 0.9365976
0000e0 1b 91 d5 3f 53 40 6c 3f fa de 4f 3f da 16 95 3f
       1.6684908 0.9228565 0.8119961 1.1647599
0000f0 f6 53 ae 3f c3 aa 57 3f 7b 4e 88 3f 18 1b 15 3f
       1.3619373 0.84244937 1.064895 0.58244467

Encoder_1.1.bias f4 [64]
000000 66 7d 4c be cd c1 4d 3e f3 98 8b 3e 58 01 05 3f
       -0.1996971 0.2009346 0.27265128 0.51955175
000010 87 55 91 3f 7f 00 7f be fb ad f6 3e 54 d9 3d 40
       1.1354226 -0.24902533 0.48179612 2.9663897
000020 34 23 02 bf ed f7 6b 3e 78 2b ef 3f 4f a6 3b 40
       -0.50834966 0.23043795 1.8685141 2.9320257
000030 98 81 19 3f bd b5 c1 3f 77 a2 d5 be c8 f2 73 3d
       0.5996337 1.5133587 -0.41725513 0.059557706
000040 51 6b 4c 40 6c fb 90 be 84 a7 f3 bd ff fe 0d bf
       3.19405 -0.2831682 -0.118971854 -0.5546722
000050 15 8a 69 bf 47 2b 54 bf 9c 8e 8c 3e b8 ad 63 3e
       -0.9122632 -0.82878536 0.27452552 0.22234237
000060 e1 c7 90 be 66 8a 62 bf ab 36 50 3f ce ec b3 bf
       -0.28277496 -0.8849243 0.81333417 -1.4056642
000070 fd 76 be bb e8 e7 05 40 2f 4d a1 bd d4 36 04 3e
       -0.0058125244 2.0922794 -0.0787605 0.1291154
000080 7e 41 57 3e a7 d6 c8 3f ae 3c 89 bf c2 f4 e6 3e
       0.21021077 1.5690507 -1.0721643 0.4510861
000090 2a b1 14 3d 83 16 3d 3e f9 43 fe bf 04 20 9f be
       0.03630177 0.18465619 -1.9864494 -0.31079113
0000a0 1b 50 fc 3f 29 4e d7 3f 2e 57 1e bf ca 8d 22 3e
       1.9711946 1.6820728 -0.61851776 0.158744
0000b0 2e ee 6d 40 f2 42 9a 3f 97 6a be 3e 45 2c 8a 3d
       3.7176623 1.205168 0.37190697 0.06746725
0000c0 27 30 8a be 74 18 96 3e b1 2c 9a bd ba d9 a5 3d
       -0.26989862 0.2931553 -0.075280555 0.08098169
0000d0 b4 85 b4 3f 16 3a cf 3c d7 ac 9b 3c f7 1b a5 bd
       1.4103303 0.025296252 0.019003315 -0.080619745
0000e0 72 ec 81 bf d5 da 7a 40 53 f8 38 bf 33 a3 3e be
       -1.0150282 3.9196064 -0.7225391 -0.18616943
0000f0 48 36 d1 3f 53 b5 ed 3d e0 6d 67 be 69 82 66 3f
       1.634469 0.116068505 -0.22600508 0.9004274

Encoder_1.1.running_mean f4 [64]
000000 8d 7d f2 3c 81 d7 23 3e c8 a9 25 be 72 e9 2c be
       0.029600883 0.16000177 -0.16178048 -0.16885927
000010 8b 1b 5a 3e 7d f1 fe bd a2 5c 0c 3e 29 96 b9 bd
       0.2129957 -0.12448404 0.13707212 -0.09061844
000020 4f 93 8f 3d b1 71 88 bd f0 e9 8d 3d 0a 1b aa bd
       0.07010519 -0.0666231 0.06929386 -0.083059385
000030 5c 52 dd 3c 14 f0 ae 3d 3c d6 5c 3c 80 e1 43 3e
       0.027016811 0.08541885 0.013478812 0.1912899
000040 c2 1b c3 3d 5b 0c 63 3e 17 68 ae bd f3 22 04 bd
       0.09526779 0.22172682 -0.08515947 -0.032259893
000050 07 f9 09 be 2b b8 34 3d d9 89 72 3d 75 8f 70 be
       -0.13473903 0.04412095 0.059213493 -0.23492225
000060 ed cf 8d be 71 54 0e be 0e 37 94 bd ae 3a 52 3e
       -0.27697697 -0.138994 -0.07237063 0.20530197
000070 cc 01 05 3e 6d 1b 55 3d 04 29 6a 3d 58 92 93 3c
       0.12988967 0.05202811 0.05716802 0.018014118
000080 cb cf 26 3d dd 0d 57 3e 74 0a c9 bc 4c 23 b3 3d
       0.04072551 0.21001382 -0.024541117 0.08746967
000090 27 a0 4d 3e 13 b8 8e 3d bb b0 2e 3e e3 84 03 3e
       0.20080625 0.06968703 0.17059605 0.12843661
0000a0 2c 44 79 bd 62 ac be 3d 1d 30 f7 bd 12 f3 50 3e
       -0.06085603 0.09310223 -0.12069724 0.20405224
0000b0 d5 76 5f bd 71 ec 8e 3e 75 3d 0c be 6d db c2 bd
       -0.054556686 0.27914765 -0.13695319 -0.095145084
0000c0 d6 48 85 3d 35 02 3d bd 43 3e ce 3d a4 ab 1b be
       0.06508033 -0.046144683 0.10070469 -0.15202194
0000d0 78 de 69 3d 6f 8c b6 bd b1 99 9e bb 36 ce 61 3d
       0.05709693 -0.08913504 -0.004840099 0.0551283
0000e0 56 f6 4a bd b2 42 35 be 43 d6 1d 3e a7 4b e4 3a
       -0.04955133 -0.17701223 0.15413766 0.0017417566
0000f0 bb 39 d8 bd 0e 07 14 3e 3c 66 2a 3e e4 e0 91 3d
       -0.10557886 0.14455816 0.16640562 0.071229726

Encoder_1.1.running_var f4 [64]
000000 27 c9 e8 41 bf 46 51 40 0d cb 50 40 f2 a0 98 40
       29.098219 3.269943 3.2623932 4.7696466
000010 3a d5 69 40 ce 96 1c 41 7f 8d f8 40 c5 99 a5 40
       3.6536393 9.786818 7.7672725 5.1750207
000020 ce 26 88 40 2d ee 9e 41 b8 c6 ce 40 27 c9 2e 40
       4.254737 19.866297 6.4617577 2.7310274
000030 1c f2 02 41 13 d0 62 41 26 3b a3 41 5a b1 34 41
       8.184109 14.175799 20.403881 11.293299
000040 3d 7e b3 40 16 f6 83 41 ac f2 20 41 9f 98 ac 41
       5.60916 16.49516 10.059246 21.574522
000050 a3 7d 4d 42 0e b8 1d 42 ac ae 92 41 36 2f f5 40
       51.372692 39.42974 18.335289 7.662013
000060 ce 30 51 41 69 ab 25 42 b9 12 29 41 4e 46 9f 42
       13.074415 41.417393 10.567071 79.637314
000070 5c ab 03 41 96 a1 3f 40 b9 3b bb 41 f8 28 ae 41
       8.229336 2.9942374 23.404161 21.770004
000080 5d dd f6 40 1e 25 cf 40 17 30 2d 42 0b df 8f 40
       7.714522 6.473281 43.296963 4.495977
000090 84 75 95 41 6e 9c b6 41 98 d3 97 42 a3 8a 5e 40
       18.68238 22.826382 75.91327 3.4772117
0000a0 96 2c e7 40 05 0b fd 40 b4 67 07 42 99 e8 aa 41
       7.2241926 7.907595 33.851273 21.363573
0000b0 54 de 3d 40 44 48 f2 3f cc d4 6d 40 5c b2 bc 3f
       2.9666948 1.8928304 3.716113 1.4741931
0000c0 3d 59 6b 41 6c 9a 6f 40 ce aa b8 41 1e 4e 31 41
       14.709287 3.7438002 23.0834 11.081572
0000d0 45 63 1d 41 e5 1c de 40 72 26 ef 40 44 4c 79 41
       9.836736 6.941027 7.473443 15.58112
0000e0 2e ee 38 42 f4 09 2f 40 e6 69 c4 40 bf 0a 50 41
       46.232597 2.7349825 6.137927 13.002624
0000f0 cb 85 85 41 03 ec 76 41 00 01 55 40 c3 dc c0 40
       16.690329 15.43262 3.328186 6.0269485

Encoder_2.0.weight f4 [32, 64]
000000 22 84 8b be 64 90 1f bc 74 5b c8 3d 44 a5 e9 3d
       -0.27249247 -0.009739015 0.09783068 0.11408475
000010 d3 4e 72 be 33 f1 bf 3e c4 4b 93 3f 3d a5 a8 3e
       -0.23662882 0.37488708 1.1507497 0.32938567
000020 b0 7e ee 3e e9 aa b4 bf ed cf 02 be 90 b7 d6 bd
       0.4658103 -1.4114658 -0.1277463 -0.104842305
000030 4b 1b d7 3e ef 70 ce bf d1 98 8f 3c 01 cc 6c 3f
       0.4201301 -1.6128215 0.017528923 0.92498785
000040 df d5 07 3f ed df 72 3f 7f 9d 55 3f 01 fa 2a 3f
       0.53060716 0.94872934 0.83443445 0.66787726
000050 31 58 14 3f ac ca 6a 3e 15 34 96 3e 20 3d 35 bf
       0.5794707 0.22928876 0.2933661 -0.70796394
000060 ef ce b7 3f df 63 64 3f 34 b6 10 bf 39 fe da bf
       1.4360026 0.8921489 -0.5652802 -1.7108833
000070 75 60 28 3c 3c 6a 3f 3d 3b ad 11 40 c4 7c 5a 3e
       0.010276903 0.046732172 2.2761981 0.21336657
000080 3d 03 a7 bc 8c 49 42 3c 99 5d 59 bf 63 6c d7 be
       -0.020387286 0.011858355 -0.84908444 -0.4207488
000090 56 ef 1b bd 0c 8e c0 bc ad ce 28 c0 58 f3 b5 bc
       -0.038070045 -0.023505233 -2.6376145 -0.022210762
0000a0 43 33 d0 bd 04 1c 70 be c2 49 1c bd 74 8a 77 be
       -0.101660274 -0.23448187 -0.03815628 -0.2417391
0000b0 d2 bd 4e 3e 3b 5f b6 3e a0 6f 10 3e d3 c5 b9 be
       0.20189598 0.3561953 0.14105082 -0.3628374
0000c0 ad ab c8 be 83 db 25 3e 70 be ed be c1 66 67 3e
       -0.39193478 0.16197018 -0.46434355 0.22597791
0000d0 a8 24 e9 3e 6b c0 76 bf 74 ea d7 be d2 9f a7 bf
       0.4553578 -0.96387357 -0.4217106 -1.3095648
0000e0 5f 3c 9b 3e 28 5f f3 3e b6 4f 95 bd dc 36 5e be
       0.30319497 0.47533536 -0.07290594 -0.21700615
0000f0 33 11 d8 bd 64 c6 36 3e 98 56 9d 3b fe af 73 3e
       -0.105501555 0.17849118 0.0048015825 0.23797604
000100 bf 67 b3 be 83 58 15 bf ed 28 31 be ba 7d 8b 3d
       -0.3504009 -0.58338183 -0.17300768 0.0681109
000110 05 31 f9 bc 30 e7 9d be f0 30 50 bf 0a fb 2c bf
       -0.030418882 -0.30840445 -0.8132467 -0.67570555
000120 e0 62 03 3f b5 51 17 be bb da ea be 3b f3 88 be
       0.51322746 -0.14777263 -0.45870003 -0.2674807
000130 47 18 42 be 60 f0 93 3e f3 aa f3 bf 8f ad 91 3e
       -0.18954574 0.2889433 -1.9036545 0.28452727
000140 52 95 b9 bf 7a 35 91 bf ef 06 a1 3e b3 29 8b 3f
       -1.4498694 -1.1344445 0.31450602 1.08721
000150 9e 96 84 bd 86 44 2c bf 83 a6 0c bf d6 a5 8f 3f
       -0.064740404 -0.6729206 -0.54941577 1.1222484
000160 fd 46 e5 be 07 93 b2 be d1 1e 3b 3e e5 bd 8f bf
       -0.44780722 -0.34877798 0.18273474 -1.1229826
000170 e5 dd 09 3f 38 20 2a be e6 a6 25 bf d1 22 fb be
       0.5385421 -0.16613853 -0.6470779 -0.4905
000180 fc 0a 60 be 44 a6 49 3f 39 b4 b1 bc 3e b6 ba be
       -0.2187919 0.78769326 -0.021692382 -0.36467165
000190 2e 4d 68 be c9 a4 0f 3f 9c 1d 21 c0 42 5c f5 3b
       -0.22685692 0.5611082 -2.5174322 0.0074878046
0001a0 3d 75 92 3e 5e f5 35 bd 7f e3 2c bf 47 f0 1d 3f
       0.2860507 -0.044423454 -0.6753463 0.6169476
0001b0 d4 13 f3 bd 09 f1 e1 3e 92 ed 08 3f b1 6b c5 be
       -0.11869016 0.44129208 0.53487504 -0.38558725
0001c0 d5 5d a6 3f a2 af 18 be 1d a2 70 be 4b 99 db bd
       1.2997385 -0.14910749 -0.23499341 -0.10722598
0001d0 94 bf 86 be 55 69 44 bf e4 40 f0 be c5 7b 73 bf
       -0.26318038 -0.76723224 -0.46924508 -0.9511073
0001e0 8d 28 87 bd 32 02 b2 bd 6a a5 10 3f a8 83 96 bf
       -0.06599531 -0.08691825 0.565024 -1.1758928
0001f0 db 42 e2 3b bd 4a c3 3f 38 d6 84 3e 6c 82 82 bd
       0.0069049424 1.5257183 0.25944686 -0.06372532
000200 e9 72 2b 3e 8f 8a cb 3e b4 01 89 be 4a d7 8e bd
       0.16743053 0.3975415 -0.26759112 -0.06974657
000210 08 60 0e 3f 21 b7 0b bf a6 e9 b8 3d 70 16 8d 3e
       0.5561528 -0.5457631 0.0902894 0.2755618
000220 2d 01 ca bc 56 70 82 3e 55 dc a8 bf 92 c4 12 be
       -0.024658764 0.2547633 -1.319224 -0.14332798
000230 2e 1c 96 bf c5 cb b2 3e 5d 54 ee be 33 a2 19 bf
       -1.172735 0.3492109 -0.4654874 -0.6001312
000240 8f 64 a9 3d 9f bc 80 3e aa 74 d5 bc ca a1 c6 3e
       0.08271133 0.25143906 -0.026056606 0.3879531
000250 31 ad 1f 3f ea 5a 96 3f 13 1e f8 3d dd 5c 18 3e
       0.62373644 1.1746495 0.12115111 0.14879175
000260 3f b5 ab 3e 96 ca dc 3e fe d6 81 be b4 74 dc bd
       0.33536717 0.4312331 -0.2535934 -0.10764447
000270 ef 72 db 3e 55 9e 94 3e a7 46 fe 3b f1 7f a4 3e
       0.42861125 0.29027048 0.0077598873 0.32128862
000280 11 86 6d 3f 8d 39 c8 be e3 3e f1 3e 01 d9 c6 3d
       0.92782694 -0.39106408 0.4711829 0.09709359
000290 6f 84 a9 be 16 d0 71 3d c5 55 95 bf 11 d6 64 3e
       -0.3310885 0.059036337 -1.16668 0.22347285
0002a0 32 dd 06 3d 3b 5d 57 3c 93 18 10 3f de 6a 8f bd
       0.032925792 0.0131447865 0.562875 -0.07002805
0002b0 53 a9 3c 3e 0a 1d b3 bf 84 99 64 40 c3 5f 8e bd
       0.18423967 -1.3993237 3.5718699 -0.06951859
0002c0 03 3c fb be ea f4 22 3f a6 36 e6 3e 89 a4 89 be
       -0.49069223 0.6365496 0.44963568 -0.26883343
0002d0 90 da c8 3e ed b1 81 3d 1d 43 99 bf e9 75 70 3d
       0.3922925 0.06332765 -1.1973606 0.058706198
0002e0 19 22 a1 3e 29 ea b2 3e 37 30 cf 3f 5e d6 3d 3e
       0.31471327 0.34944275 1.6186589 0.18538806
0002f0 bc 8d e8 be 91 30 ed 3f 86 c9 a3 be 62 f1 be 3e
       -0.45420635 1.8530446 -0.31989688 0.37293535
000300 34 c8 5c bf 3b e3 12 3c 31 fc 0b 3e fc 37 9e 3e
       -0.86242986 0.008965309 0.13670422 0.30902088
000310 96 71 6d bd 9e 40 1d bd 5c 65 3c 3e bf 7d c8 bc
       -0.057969652 -0.038391702 0.1839804 -0.024474023
000320 63 f7 b6 be ba e4 a2 bf 80 15 f1 3c 41 17 a7 3e
       -0.35735616 -1.2726052 0.029429197 0.3263493
000330 ad 25 1b 3f 00 49 00 3f 3c 4e db 3f 0e 6d 87 be
       0.60604364 0.5011139 1.713325 -0.2645039
000340 ce 1b 28 3b 19 9a b0 3f 0b b2 6f be 05 d7 f6 3c
       0.0025651339 1.3797027 -0.23407762 0.030131826
000350 7f 31 bf 3e b2 97 93 3e 39 88 c7 be bf 63 dd be
       0.3734245 0.28826672 -0.38971117 -0.43240163
000360 4e 20 34 be 25 8e be 3e b6 8b ce 3e 10 26 4f bf
       -0.17590448 0.37217823 0.40340966 -0.80917454
000370 02 13 49 3e b7 c8 42 3e f6 a8 34 bf ec 2d 18 bf
       0.19636157 0.19021879 -0.70570314 -0.5944507
000380 97 3d 82 bb 56 16 75 3f b7 73 47 be fd c2 26 3d
       -0.0039746272 0.95737207 -0.19477735 0.0407133
000390 c4 21 3f bf b2 fd 88 bf a9 88 43 3e 7a 0b 1c be
       -0.746609 -1.0702422 0.190951 -0.15238753
0003a0 f6 6e 7f bd 89 6f 84 bd 21 65 2d bf e7 c7 96 bf
       -0.06236168 -0.06466586 -0.67732435 -1.1779755
0003b0 4f 67 85 3d 94 00 df 3e 32 17 03 be cc 28 3d 3e
       0.06513845 0.4355513 -0.12801817 0.18472594
0003c0 9f fa bf be ce cb 24 be ab 5f f9 bd 22 b6 e6 bd
       -0.37495896 -0.1609337 -0.1217645 -0.11265208
0003d0 00 3d 0c 40 8f 9e 15 bf d6 65 96 3d 97 46 0e be
       2.1912231 -0.58445066 0.073436424 -0.13894115
0003e0 b6 29 2f 3e 2b c8 5b bd 36 83 85 be b6 4a f0 3e
       0.17105755 -0.053657692 -0.26076669 0.46932
0003f0 94 3a e1 3f f7 8d 6f bf 9d d2 0b 3e ab e4 2a 3f
       1.7596002 -0.93575996 0.13654561 0.6675517

Encoder_2.0.bias f4 [32]
000000 a9 4d bf 3d fe 33 2c bc 0d 50 76 bc f0 bf 15 3d
       0.093409844 -0.010510443 -0.015033734 0.03656
000010 84 bc dd bd 6a b0 ed 3c c3 1f 18 3d e2 cf 9a 3d
       -0.10826972 0.029014785 0.037139665 0.07559182
000020 38 d2 8f bd 1b 0b e3 3d 90 1a ac bc 50 6a a8 3d
       -0.07022518 0.110861026 -0.02100876 0.082234025
000030 8b 08 25 bd 20 5e 8c bd 3d 37 8a bd 2e 2f d8 3c
       -0.04029135 -0.068538904 -0.06748817 0.026389685
000040 42 c1 ff bd 39 78 ce bd 16 84 88 3d 01 eb c7 3d
       -0.12488033 -0.100815244 0.066658184 0.0976162
000050 b0 e3 cb bd a1 94 39 bd 97 f8 27 bd 9e 42 a8 bd
       -0.09955537 -0.04530776 -0.041008558 -0.08215831
000060 c9 e4 bc bd dc 22 7b 3d 83 d6 94 3d 43 93 0c bd
       -0.09223325 0.06131254 0.07267477 -0.034320127
000070 26 68 9c bd 33 a4 ae bc cb 0e eb bc 8b 10 c6 3c
       -0.07637052 -0.02131853 -0.028693577 0.02417781

Encoder_2.1.weight f4 [32]
000000 33 fd b6 3f 5e d4 6f 3f 53 f9 40 3f d0 ed a4 3f
       1.429602 0.9368342 0.7538044 1.2885075
000010 14 c5 aa 3f ae 05 47 3f d6 fb 43 3f 3e a8 4a 3f
       1.3341393 0.7774304 0.76556146 0.7916297
000020 94 4f c5 3f f2 60 7f 3f 22 ee ff 3e 0c f7 45 3f
       1.541491 0.997573 0.49986368 0.7733009
000030 37 14 7d 3f e6 ea 56 3f 84 26 e1 3e fc d1 66 3f
       0.9885897 0.83952177 0.43974698 0.9016416
000040 3c bb c8 3f 33 47 81 3f 26 d8 c3 3f 7e 72 d2 3f
       1.5682139 1.0099853 1.5300338 1.644119
000050 54 9b e0 3f 92 72 8a 3f 98 d5 50 3f 67 40 0b 3f
       1.7547402 1.0816214 0.8157592 0.54395145
000060 f5 ab 7c 3f 53 5d 76 3f 58 c9 4a 3f cf 07 8d 3f
       0.98699886 0.9623615 0.79213476 1.1018008
000070 80 02 62 3f 6a 86 7e 3f 15 d7 88 3f 4a 9b 3f 3f
       0.88285065 0.9942385 1.0690638 0.7484633

Encoder_2.1.bias f4 [32]
000000 58 74 36 bc 14 f9 a7 3e 57 e7 12 3f d2 35 17 3f
       -0.011136137 0.3280722 0.57384247 0.590665
000010 2a c6 0b bf 59 6b de 3f 0b 86 56 40 1e 68 81 40
       -0.5459925 1.737651 3.3519313 4.0439596
000020 68 33 bb bd fd 31 1d 3f 68 ae 88 3d ad 5f 3c be
       -0.09140664 0.614044 0.0667389 -0.18395872
000030 87 eb 70 3f 9e 2b d0 3f eb 21 c1 3e e7 ad 60 40
       0.94109386 1.6263311 0.3772119 3.5106142
000040 b1 13 2b be fe ce db 3d bc 84 0b 3e f2 43 84 be
       -0.1670673 0.1073284 0.13624853 -0.25833088
000050 fe cb 0c bf 54 6b b0 3e e4 d5 e7 3f 43 81 01 40
       -0.5499877 0.34456885 1.8112149 2.0235145
000060 c7 4d 5e 40 8a 01 e3 3f ec f0 a3 3f a2 9c 50 3f
       3.4734972 1.7734845 1.2807899 0.81489
000070 89 99 34 40 66 4c 66 40 cd 46 56 40 09 78 8f 3f
       2.821871 3.598413 3.3480713 1.1208507

Encoder_2.1.running_mean f4 [32]
000000 d2 7e 8e 40 ab 27 16 c1 94 55 46 40 dd fd 08 41
       4.452981 -9.384685 3.0989733 8.561978
000010 ec bb 98 c0 75 7e ff c0 74 11 dd bf d7 3e 37 c1
       -4.7729397 -7.9841866 -1.7270951 -11.452842
000020 b7 1b 69 bf 02 9f 95 3e 47 8f 60 c0 c8 e4 d8 be
       -0.91057914 0.29222876 -3.508745 -0.42362046
000030 3c b6 db 40 29 2b 60 41 dc a7 26 3f a5 9c b0 40
       6.8659954 14.010537 0.65099883 5.5191216
000040 2d b2 93 c0 0c ad 46 c1 2e 73 70 be 55 46 01 41
       -4.6155 -12.417248 -0.23481438 8.079671
000050 74 f8 78 c0 41 de 6b c1 c0 6f 4b 41 6c ab b3 40
       -3.8901644 -14.741761 12.714783 5.6146755
000060 e1 46 9f c0 67 d1 c5 3f 96 5c ba 3f 5e 75 1d 40
       -4.977402 1.545453 1.4559505 2.4602885
000070 5e e0 53 c0 f8 cd 77 41 44 29 9d 41 81 01 79 40
       -3.3105693 15.487785 19.64515 3.8907168

Encoder_2.1.running_var f4 [32]
000000 06 d8 1d 42 7e e1 49 42 5f bb f0 41 6b 1f 82 42
       39.46096 50.470207 30.09149 65.06136
000010 60 56 c9 41 e0 c2 ba 41 41 6b 56 41 e7 43 25 42
       25.167175 23.345154 13.401185 41.31631
000020 c9 f3 ac 41 87 bb 3e 42 3d cf bc 41 31 d4 37 42
       21.619036 47.683132 23.60119 45.95722
000030 38 60 2a 42 e8 8c 93 41 c7 da ab 41 ca b5 90 41
       42.593964 18.443802 21.481825 18.088764
000040 43 4b 3b 42 7f 0b 40 42 87 db 37 42 8d d6 3d 42
       46.823498 48.011227 45.964382 47.459522
000050 3b ba 1c 43 09 80 f3 41 92 48 b0 41 59 76 54 41
       156.72746 30.437517 22.035435 13.278893
000060 75 68 4a 42 02 15 f6 41 2a 59 ac 41 4b 35 2b 42
       50.60201 30.760258 21.543537 42.802044
000070 de 76 f5 41 c6 05 21 42 79 ad 5a 42 61 df 7d 41
       30.68304 40.25564 54.669407 15.867036

Decoder.0.weight f4 [64, 32]
000000 ed 94 e2 bd df 8f f7 bc 0d 2f 0b c0 1e 64 92 3e
       -0.110635616 -0.03021997 -2.1747468 0.28592008
000010 3d d4 f4 3d cc d4 16 3f 75 50 11 3f 9b 63 97 be
       0.11954544 0.5891845 0.5676339 -0.2956818
000020 8e 70 62 be ca ac 88 3e 12 37 b9 bc 00 74 9e be
       -0.22113249 0.26694328 -0.022609267 -0.30947876
000030 11 1f 91 be 7f 8e 1f bf 29 3d 95 3e 18 db ae 3f
       -0.28344014 -0.62326807 0.29148224 1.3660612
000040 20 24 5b 3e 09 89 13 bd aa 6a 73 3e ad 03 47 bf
       0.214005 -0.03601936 0.23771158 -0.77739984
000050 50 c6 bd be 3f 56 4d bd 4c 1d e8 3e 44 b6 04 3e
       -0.37065363 -0.05013108 0.45334852 0.12960154
000060 1a 95 d6 bc 33 a8 04 40 00 43 4d bf b0 1d 14 3e
       -0.026194144 2.072766 -0.8018036 0.1446445
000070 fe 14 62 3e a1 65 b4 be a5 c9 34 3f fc 6a e2 bd
       0.2207832 -0.35233787 0.70620185 -0.11055562
000080 ef ad ee bd 20 83 d9 be bc fa f1 be 40 c9 22 3e
       -0.11654269 -0.42482853 -0.47261608 0.15897083
000090 24 5c 3c 3f 01 88 dc 3f 5d 4a b3 bf 16 93 06 bf
       0.73578095 1.7229005 -1.4007069 -0.52568185
0000a0 be 72 99 bd fe f6 f0 be ad 1e 33 3d ad e7 d3 3d
       -0.074925885 -0.4706344 0.043730427 0.10346923
0000b0 b9 49 30 bf 71 16 2d bd ee 1d 8d 3e ae cc b5 bf
       -0.6886249 -0.04225773 0.27561897 -1.4203088
0000c0 6b d8 f1 3e 28 61 cb 3c 12 e5 29 be fe cc 9e 3d
       0.47235426 0.024826601 -0.1659129 0.07753943
0000d0 77 25 2c bc d7 e3 e4 3e b7 01 56 be 7b cc 5d bf
       -0.010506979 0.44705078 -0.20899092 -0.8664014
0000e0 06 93 89 bc e1 cc 0d 3e 81 b3 bf 3d a0 25 f5 bf
       -0.016793739 0.13847686 0.093604095 -1.9152107
0000f0 0c e0 38 3f 0c ee fd 3e ef 1e 8e be 99 1f 86 bf
       0.7221687 0.49595678 -0.27757975 -1.0478393
000100 07 ee e1 be 00 ad 88 bd 9b 43 45 3f 60 ab ce bf
       -0.44126913 -0.06673622 0.7705628 -1.614605
000110 60 7e c7 be 9a 82 6f 3f ea a8 4c bd ef 9f c8 3e
       -0.38963604 0.9355866 -0.049965777 0.3918452
000120 52 96 43 bf 13 8e a4 3f c4 27 47 3f fa fc 15 3e
       -0.76401246 1.2855858 0.7779505 0.14647284
000130 30 9e cd be 0e 02 ce bb b8 30 4f bc 0e b9 0e 3e
       -0.4015975 -0.006286866 -0.012645893 0.1393778
000140 a6 85 73 3e 58 4f aa 3e 36 1b 86 3e 1e 90 0e c0
       0.23781452 0.3326366 0.26192635 -2.2275462
000150 ab 00 fa bd 21 f9 90 be 7e b4 1e 3f 73 69 83 be
       -0.12207159 -0.2831507 0.6199416 -0.2566639
000160 75 e5 87 be 0a 7b 79 bf 58 b9 98 3e 9d f3 bc 3e
       -0.2654225 -0.9745337 0.29828906 0.36904612
000170 83 2b 11 3e 54 32 37 3e b2 d1 aa 3e d2 12 1b bf
       0.14176755 0.17890292 0.3336311 -0.6057559
000180 79 7d 31 3f 03 90 f9 3d 83 0f 82 be bf 5a cf 3d
       0.6933208 0.12185671 -0.2540246 0.1012473
000190 19 3f 60 be be 6e ee bd 03 da 98 bd a9 78 a1 3f
       -0.2189907 -0.11642216 -0.074634574 1.2614948
0001a0 82 be 44 3e d2 33 13 3d 65 21 d3 bf 7b b3 10 bf
       0.19213298 0.03593809 -1.6494566 -0.56523865
0001b0 c3 bd be 3c 3f 9b 42 be 5b 53 8e 3e eb 9c 21 3f
       0.023283845 -0.19004534 0.2779797 0.6313006
0001c0 d4 f8 4c be 65 c2 ee be bb 64 15 be 83 e9 0c be
       -0.20016795 -0.46632686 -0.14589207 -0.13760953
0001d0 2e ba 62 be 1b f6 f7 be c4 43 8b 3f c2 ca fc 3e
       -0.22141334 -0.4842995 1.0880055 0.49373442
0001e0 12 13 c3 3d a5 29 0b be 32 96 80 be 8e d5 81 be
       0.09525122 -0.13590105 -0.2511459 -0.25358242
0001f0 ae 8b cd bd 63 b5 3e 40 03 4a b1 3d a5 2d ce 3e
       -0.100364074 2.979821 0.08656695 0.402692
000200 77 6f 81 3e fa ae 4e be e4 db 93 3e d5 0b 28 be
       0.25280353 -0.20183936 0.288787 -0.16410764
000210 40 6f c0 3d eb 95 d4 3e ae f7 ec 3e 8e f0 b6 3b
       0.09396219 0.41520628 0.46282715 0.0055828756
000220 85 cc 59 be 20 6d 8c 3e 29 8d 06 3e 91 70 99 3f
       -0.21269424 0.27427006 0.13139786 1.1987478
000230 3e 16 12 3d 00 fc 33 3f 7a 55 be bf 0f 48 71 3e
       0.035665743 0.70306396 -1.4869835 0.23562644
000240 cc d3 7c bd e5 e0 30 bb be 0e 81 be ce 4b f5 bc
       -0.061725423 -0.0026989516 -0.2520656 -0.029943373
000250 0e 10 81 3d 6f b9 c0 be 54 3a 3a be db 9b ad be
       0.0630189 -0.37641475 -0.18186313 -0.3390797
000260 32 f8 63 40 28 8f 3e be 94 22 72 bd ec 33 f5 be
       3.5620236 -0.18609297 -0.059115008 -0.47891176
000270 e1 ff 48 3d b1 92 2d 3e 5d 41 05 bc 4b 89 67 3d
       0.04907215 0.1695049 -0.00813326 0.056527417
000280 cc c4 17 3f c5 28 14 3e 83 48 f3 3e 32 00 84 3e
       0.59284663 0.14468677 0.4751626 0.257814
000290 fd be 2d 3c a6 9f d8 3e 41 41 34 bf 1c 3e ce be
       0.010604617 0.42309302 -0.7041207 -0.4028176
0002a0 e1 1e c3 be 79 51 ae bd 58 da b6 3f 88 5d e7 be
       -0.38109496 -0.085116334 1.4285383 -0.45188546
0002b0 96 58 08 3f 73 36 12 3e 94 ca 15 3e c5 95 c4 bd
       0.5326017 0.14278583 0.14628059 -0.09598879
0002c0 5b d7 f9 be cf 2f b9 3d 3b 17 19 bf 59 ca b2 be
       -0.48797116 0.09042322 -0.5980107 -0.34920004
0002d0 c8 84 e5 3e 44 f9 02 3e 24 7e 5e bf 29 ae b3 be
       0.44827867 0.127904 -0.86911225 -0.3509381
0002e0 3d 45 17 be 82 6e 4c 3f b1 58 01 3d 50 41 1e 3f
       -0.14772506 0.7985612 0.031578723 0.6181841
0002f0 3a 8f a6 3e 5c 0f 8c be df 1a e2 3e a7 e0 2f 3e
       0.32531148 -0.27355468 0.44161126 0.17175542
000300 6f 92 e9 bd 95 e7 1f 3f 0e 48 88 be f6 15 af bf
       -0.11404883 0.6246274 -0.26617473 -1.3678577
000310 cc 58 77 3e 33 f1 a3 3e 80 0d e9 3e 3a 33 0e bf
       0.24154967 0.32019958 0.45518112 -0.55546916
000320 5a 8a f8 be e6 7b 75 3d b2 aa d5 3e b2 5f 6e be
       -0.48543054 0.059932612 0.41731793 -0.23278692
000330 54 5b 0e 3d 28 e4 54 3e 69 3a 0b 3f 7f 25 cc 3e
       0.034755066 0.2079016 0.54386 0.39872357
000340 a8 54 68 3f 50 37 8f 3e b2 3d 3e 3e 35 36 96 bf
       0.90754175 0.27971888 0.18578222 -1.1735293
000350 c9 46 a8 be 0f 26 3c bd 13 be d7 be 90 93 05 bf
       -0.32866505 -0.045934733 -0.42137203 -0.5217829
000360 28 be 56 3e 6b e1 ea be 42 ac e4 be c9 25 5a 3e
       0.20970976 -0.45875105 -0.44662672 0.21303476
000370 77 e0 44 3d b5 4d ee 3e b4 4a 00 bc 9c 94 2b bf
       0.04806563 0.4654366 -0.007830311 -0.67023635
000380 a8 31 3b bf 42 c4 cb bd 9a 8f 69 3e 94 69 4d be
       -0.73122644 -0.099495426 0.22808686 -0.20059806
000390 40 e0 7d 3e fd c7 cb bd b8 6b a0 3d 08 09 94 bf
       0.24792576 -0.09950254 0.07833046 -1.1565256
0003a0 5b 64 14 be 89 32 bd bd e5 5f 28 40 f3 75 2b 3f
       -0.14491408 -0.092381544 2.630853 0.6697685
0003b0 ec 50 09 bb 08 51 87 3d 05 d9 d3 be 17 3c 02 bf
       -0.0020952774 0.06607252 -0.4137651 -0.5087294
0003c0 74 0f 5b 3d eb e4 a0 3e 1f d0 d4 3d c3 ec 50 3e
       0.053481534 0.3142465 0.103912584 0.20402817
0003d0 9b ec 4b 3e 38 da 2b 3f 5e 61 7f bf 47 ae e4 be
       0.19914477 0.6712985 -0.99757946 -0.44664213
0003e0 88 1e 0f be 3a 1f 84 3e c9 f0 13 3e 08 c5 2d 3e
       -0.1397649 0.25805074 0.14447321 0.16969693
0003f0 5a fc b5 3d 85 26 31 c0 7e ae 15 be 02 7c 93 be
       0.08886023 -2.767976 -0.14617345 -0.28805548

Decoder.0.bias f4 [64]
000000 da 70 19 bd f4 a4 84 bc 58 86 85 bd 3f 8a 73 3d
       -0.03746114 -0.016191937 -0.06519765 0.059458014
000010 2c ef 65 bb af 12 c8 3d 75 a5 32 3d cc 88 59 3d
       -0.0035085184 0.097691886 0.043614823 0.053108975
000020 73 d4 13 3d a0 93 51 be 6c 8c 40 3e 34 b7 1c be
       0.03609128 -0.2046647 0.18803567 -0.15304261
000030 f2 41 6d b9 70 22 8a 3d c1 dc 2a 3d fc 2a 24 bd
       -0.00022626648 0.0674485 0.041714434 -0.040080056
000040 c7 a1 d6 bd e6 01 5e bb f9 9f c5 3d 24 f2 28 3e
       -0.10480075 -0.0033875643 0.09649653 0.1649862
000050 82 53 2c bd 34 48 17 3c 8f 1a 67 bd 25 08 08 be
       -0.042071827 0.009233523 -0.056421813 -0.13284357
000060 1a 7b 44 3d 49 69 a1 bd 44 d8 cb 3d 6f 11 93 bc
       0.04796896 -0.0788141 0.09953359 -0.017952649
000070 32 29 2c 3e 70 35 02 3e 11 c7 10 be 4c f7 26 be
       0.1681259 0.12715697 -0.14138438 -0.16305274
000080 44 31 21 3e ce 1f 4e be d1 33 39 bd c8 01 49 3c
       0.1574145 -0.2012932 -0.04521543 0.012268491
000090 21 08 0e be 5e d7 11 3d 67 ee e8 bd dc 00 fe bd
       -0.13870288 0.03560578 -0.11373597 -0.12402508
0000a0 e4 b1 00 bd 3a 18 1e bd bf a1 e1 3c 74 a5 a4 bd
       -0.03141965 -0.038597323 0.027542947 -0.0803937
0000b0 11 e2 ff 3c 7f 04 21 3e 2c 00 f0 bc a3 f0 79 bd
       0.031235727 0.15724371 -0.029296957 -0.061020505
0000c0 78 7a b2 bd 27 8d df bd e4 85 68 be 5c 85 4a 3e
       -0.08714765 -0.109155945 -0.22707325 0.19777435
0000d0 be 05 0a 3c ca 8f 2e be 73 47 03 bb 6a 78 28 be
       0.008424221 -0.17047039 -0.00200316 -0.16452184
0000e0 f3 b8 6d 3d c4 86 b0 3c 5a f3 04 bd fe 14 b5 bd
       0.05803771 0.021548636 -0.03245864 -0.088418946
0000f0 5b 48 ba bd d1 2c 66 3d 4b af e7 bd 19 b5 0d bd
       -0.09095832 0.056195084 -0.11312731 -0.034596536

Decoder.1.weight f4 [64]
000000 24 b3 ae 3e bc ec 94 3e 80 ec c9 3f 35 16 d4 3e
       0.34121048 0.29086864 1.5775299 0.41423193
000010 42 40 ce 3e 43 36 a8 3e 9e 2c 14 3f 7e be b4 3e
       0.402834 0.32853898 0.5788058 0.35301584
000020 33 a5 69 3e 3f 02 6a 3e be 86 7b 3e f8 8e e8 3e
       0.22816925 0.2285242 0.24563119 0.45421576
000030 d9 bf 26 3f bf 2c 17 3f dd 69 49 3f 18 68 cb 3e
       0.65136486 0.5905265 0.7867716 0.39727855
000040 10 d0 cd 3e 99 8a cc 3e 90 66 9d 3e cf 04 f8 3e
       0.40197802 0.39949492 0.3074231 0.4844117
000050 9f f7 a0 3e 59 f2 42 3e 1c 27 91 3e cb c1 02 3f
       0.3143892 0.19037761 0.2835015 0.51076955
000060 8e 05 11 3f d1 b6 7e 3e b3 de 9a 3e 9c e8 73 3e
       0.566491 0.24874426 0.3024803 0.23819202
000070 81 3d 88 3e b6 63 d7 3e 0f 53 3e 3e 05 e9 8e 3e
       0.26609424 0.4206826 0.18586372 0.27912155
000080 5a 39 48 3e a2 ce c6 3e 20 97 d1 3e f4 14 34 3e
       0.19553128 0.38829523 0.40935612 0.17586118
000090 bd 31 36 3f 1b 82 9e 3e f0 ef 98 3e a1 46 ff 3e
       0.71169645 0.30958638 0.29870558 0.49858573
0000a0 ae 0a e0 3e 66 b8 b7 3e b5 55 ed 3e 2d 4d 2f 3e
       0.43758148 0.35882872 0.46354452 0.17119284
0000b0 25 9f 40 3e 5c 41 6d 3e 37 3b 60 3e 10 97 64 3f
       0.18810709 0.23169464 0.21897589 0.89293003
0000c0 54 4b 85 3e fd a1 f3 3e 4a dd c5 3e f2 23 ed 3e
       0.26034033 0.47584525 0.38645393 0.46316487
0000d0 0b 5b 94 3e ab 7d d8 3e 98 0a 7f 3f 69 e0 81 3f
       0.2897571 0.42283377 0.9962554 1.014661
0000e0 92 f3 18 3e da a5 be 3e 2e 0e fb 3e 7c 85 45 3e
       0.14936665 0.3723591 0.49034256 0.19289201
0000f0 3d 62 c2 3e 2b e3 61 3e 91 46 8a 3e bc 64 b1 3e
       0.37965575 0.22059314 0.27006963 0.34647167

Decoder.1.bias f4 [64]
000000 94 a0 71 be 07 c9 9a bd fb 35 dc bf 4b 7c ef bc
       -0.23596412 -0.07557874 -1.7203974 -0.029234072
000010 d9 35 21 3c 78 e0 30 bf c6 9d 57 bf b8 c2 05 3d
       0.009839498 -0.6909251 -0.8422512 0.0326564
000020 85 b6 f5 3d b2 da 6e 3d fd 05 28 bf 84 22 3b bf
       0.119977035 0.058314033 -0.6563414 -0.7309954
000030 93 1b 7b 3e 59 80 f1 be d5 39 03 bf 3b ab 5c be
       0.24522237 -0.47168234 -0.5126012 -0.21549694
000040 8b c4 ba 3b d4 07 83 be 74 97 da bc c7 55 22 3e
       0.0056996993 -0.2559191 -0.026683547 0.15853034
000050 b4 29 22 3d 71 b1 5c be 70 14 c8 3c c8 0b 33 be
       0.039590552 -0.21552064 0.024423808 -0.17484963
000060 45 5e d1 3e 23 93 1b 3e 6e 67 7a be 02 c7 ce bd
       0.40892234 0.15192847 -0.24453518 -0.100965515
000070 9e a2 ca be 3b 72 61 bf 68 14 8e be 56 3b ad be
       -0.39577192 -0.88064927 -0.27749944 -0.33834332
000080 3a 01 29 3d 87 f3 53 be 42 90 42 be b8 1c 13 3e
       0.041260935 -0.20698367 -0.19000342 0.14366424
000090 54 90 9f 3e 5f e8 0c bf cb 15 09 bf cc f5 2c be
       0.311648 -0.5504207 -0.5354888 -0.16890639
0000a0 11 29 1f be 95 e1 3e bd f2 0f bb bc f7 c3 33 be
       -0.1554301 -0.04660185 -0.022834752 -0.17555223
0000b0 43 dd 7f bd d6 5f 85 3c 26 18 00 bf 5d 28 96 bf
       -0.06246687 0.01628105 -0.5003685 -1.1731068
0000c0 0f aa 6c be 62 62 86 bf 56 34 df 3c b2 a9 d5 3c
       -0.23111747 -1.0498774 0.027246635 0.026081894
0000d0 b8 17 13 3d c4 7a 5a bf 2c 9e 15 bf 93 16 1e bf
       0.03591129 -0.85343575 -0.58444476 -0.61753196
0000e0 b9 af ec 3d aa 0b af bb 16 7c bf be c5 40 03 be
       0.11556954 -0.0053419666 -0.37399358 -0.12817676
0000f0 69 d1 24 bf 73 47 32 bd b4 43 f7 bc 8f e6 dd be
       -0.64382035 -0.04352517 -0.03018365 -0.43339965

Decoder.1.running_mean f4 [64]
000000 57 4e 11 41 04 65 38 c1 2f 5e de 3f 64 97 9b 41
       9.081626 -11.524662 1.7372493 19.448921
000010 aa 5f 71 41 22 5c be bf 8a 98 08 bf c1 bc 91 c1
       15.0858555 -1.4871867 -0.53357756 -18.217165
000020 2b 2e 97 40 2e 3e 23 41 a2 6a e3 bd ac 36 3f c0
       4.7243857 10.202681 -0.11104323 -2.987712
000030 87 6d 39 40 5e 59 69 41 0c e1 2b c1 fc 51 cd be
       2.89731 14.584318 -10.742443 -0.40101612
000040 70 1e 65 c1 be 51 f5 be af 15 0c 40 20 62 e5 bf
       -14.319931 -0.47913927 2.1888235 -1.792057
000050 9a f9 4a 41 6b e7 8a be a0 47 f7 bf 00 80 46 c0
       12.685938 -0.27129683 -1.9318733 -3.1015625
000060 9b 57 c1 c0 fe 8f 36 bf 62 68 0d c1 1c de 54 bf
       -6.041944 -0.71313465 -8.837984 -0.8315141
000070 e7 88 75 c0 38 d0 ad 40 8e b1 bd c0 7e 19 a3 c0
       -3.8364809 5.4316673 -5.927924 -5.096862
000080 64 71 90 c0 0c 9e fc c0 b2 52 44 c0 9e 77 0e c1
       -4.5138416 -7.894293 -3.0675473 -8.904203
000090 48 64 12 41 6c 56 0b 40 15 5f 98 40 a3 27 c0 c0
       9.149483 2.1771498 4.7616067 -6.0048385
0000a0 55 5c a9 c0 77 a2 2e c1 6a 8a 77 41 0b c7 79 3f
       -5.292521 -10.914664 15.4712925 0.9756934
0000b0 bd 76 aa 40 f9 c4 a8 40 a9 0d 21 be c0 bb e5 3f
       5.3269944 5.2740445 -0.15727867 1.7947922
0000c0 fa 47 f6 c0 92 8d 53 be 42 83 01 41 8f 28 7f c1
       -7.696286 -0.20659474 8.094545 -15.947402
0000d0 74 c2 52 40 92 ac f3 bf 55 bb f1 c0 cd 6b 8a c0
       3.2931185 -1.9037039 -7.5541177 -4.3256593
0000e0 19 ba 12 41 e0 0a 21 c0 8c 9d 86 bf f4 06 78 c0
       9.170434 -2.5162888 -1.051683 -3.8754244
0000f0 3e 02 6a 3f ae 03 a1 40 49 04 b5 40 e4 be b0 c0
       0.9140967 5.031699 5.656773 -5.523302

Decoder.1.running_var f4 [64]
000000 38 ff 67 41 69 17 38 41 b4 b7 fd 41 b0 1a 8c 41
       14.499809 11.505715 31.714699 17.513031
000010 ba 11 90 41 b6 06 a9 40 76 51 13 41 48 79 8b 41
       18.008656 5.282069 9.207388 17.43422
000020 9f 49 96 41 f4 d8 2d 41 0e f8 64 40 33 18 5e 41
       18.785948 10.865467 3.57764 13.880908
000030 60 e0 4d 42 36 b8 91 41 35 82 7c 41 ea 36 70 41
       51.469116 18.214947 15.781789 15.013407
000040 67 a9 91 41 d1 51 b4 41 f5 de 86 41 78 84 cb 41
       18.207716 22.53995 16.858866 25.439682
000050 f4 85 62 41 2b a9 2b 41 1a d6 82 41 34 86 69 41
       14.157703 10.728801 16.354542 14.595264
000060 93 c9 af 42 4c c7 c7 41 49 c0 ff 40 dd 4a 5f 41
       87.8937 24.972313 7.9922223 13.955777
000070 c5 ce 27 41 bd 26 39 41 8c 73 68 40 d5 a7 24 41
       10.487981 11.571958 3.6320524 10.290975
000080 af 22 1d 41 04 5e f1 40 dd ae 6d 41 f0 9f 2b 41
       9.820968 7.5427265 14.855191 10.726547
000090 4a 27 85 42 04 c0 eb 40 9a 38 e9 40 07 d2 4d 41
       66.57674 7.3671894 7.2881594 12.863776
0000a0 87 6a 33 41 44 cd 60 41 f6 30 e9 41 4c ff 3d 40
       11.213508 14.050114 29.148907 2.968707
0000b0 d2 05 68 41 70 ca 41 41 a8 76 90 3f 11 8f fe 42
       14.501421 12.111923 1.1286211 127.27943
0000c0 e5 af 95 40 9a af 28 41 11 24 fc 41 3b bd f8 41
       4.6777215 10.542871 31.51761 31.092398
0000d0 e1 78 90 41 10 5b 5e 40 7a 20 05 43 ee 34 f5 42
       18.059023 3.474308 133.12686 122.60338
0000e0 db d1 2a 41 ee b8 5a 41 76 a2 31 41 ce 14 15 41
       10.676234 13.670149 11.102163 9.317579
0000f0 5d 09 5a 41 2e ae 25 41 53 fa b5 41 43 90 08 41
       13.627286 10.355024 22.747229 8.53522

Decoder.3.weight f4 [16, 64]
000000 ce d5 9b be 57 2f ef be 83 fd 94 3e bf 0b fd 3e
       -0.30436558 -0.46715805 0.29099664 0.49423024
000010 76 26 34 3f 66 ee 19 bf d2 77 83 bd 87 0d f4 be
       0.70371187 -0.6012939 -0.06419338 -0.4766657
000020 41 fa 79 be c0 ae 1c 3f 91 ae 31 bd 3b d7 41 be
       -0.2441187 0.6120415 -0.04337937 -0.1892976
000030 f1 16 cb 3d db 1e 61 3d 29 29 01 3e 12 2f 0b 3e
       0.09916485 0.054961067 0.12613358 0.13592175
000040 3a 80 30 bf 2f ab 41 3e 20 58 d0 be e3 df f5 3e
       -0.6894566 0.18912958 -0.40692234 0.48022375
000050 d7 b8 18 3f 8b a6 00 be 17 fa df 3e 6a 34 8b 3d
       0.59657043 -0.12563531 0.4374549 0.067971066
000060 22 50 49 bf 56 1a 10 be 62 81 af be 48 31 08 3e
       -0.786379 -0.14072546 -0.342784 0.1330005
000070 3f 5e 8d be 25 88 04 bf dd 44 82 3d 21 23 ad 36
       -0.27610967 -0.5177024 0.06360791 5.1598913e-06
000080 78 4e ac be 17 44 89 3c 61 d2 67 bd 66 71 3d bd
       -0.33653617 0.0167561 -0.056597117 -0.046250723
000090 46 77 e6 3e e9 d0 b7 bd 4a 2b cc be 4a ab f9 3d
       0.45012873 -0.08975393 -0.39876777 0.12190874
0000a0 3f a4 e5 bc 1b 71 16 bf 0a e2 d2 be 60 65 f5 bd
       -0.02803242 -0.58766335 -0.4118808 -0.11982226
0000b0 b2 fd 06 bd 04 fb 60 bd f5 81 83 bd b5 51 8c bf
       -0.032956786 -0.054926887 -0.06421272 -1.0962435
0000c0 b8 99 62 bd f3 87 de 3d 88 56 0f 3f a2 12 e8 3e
       -0.05532238 0.10865774 0.5599141 0.45326716
0000d0 9a 5e 8a 3d 0f 55 c0 3d d0 9a 2d 3e d2 47 b1 3e
       0.06756325 0.09391224 0.16953588 0.34625107
0000e0 ac 9b 38 3f 08 78 8d bd ac 86 b1 be a8 d0 2e 3e
       0.72112536 -0.0690766 -0.3467306 0.17071784
0000f0 30 23 81 be bd 13 95 3e 81 06 1d be d6 39 eb 3d
       -0.25222158 0.29116622 -0.15334512 0.11485641
000100 79 cd 4f bd 2f 2d 07 bf 04 3b 9c 3e e2 db 31 be
       -0.050733063 -0.5280332 0.30513775 -0.17369035
000110 a6 b5 5e bf c6 36 84 be 49 69 3b be da 27 36 3e
       -0.86995924 -0.2582304 -0.18301882 0.1778864
000120 43 fc bd be b9 46 36 3f 23 16 6a 3e a3 71 0d be
       -0.37106523 0.71201664 0.22860007 -0.1381288
000130 05 c0 80 bd 10 92 c7 be 95 e3 de 3d e1 5f 85 bd
       -0.06286625 -0.38978624 0.108832516 -0.06512428
000140 b3 f7 5e 3f 11 f3 13 3f b7 00 c0 be 58 10 57 3f
       0.8709671 0.57792765 -0.37500545 0.84009314
000150 59 a2 a1 be 66 69 0c 3e 89 f2 d9 3e bf 1e 58 3c
       -0.31569174 0.13712081 0.42567852 0.013190924
000160 68 76 ff be 78 85 25 bf a4 0e 06 3e e7 7d d9 3d
       -0.49895024 -0.6465678 0.13091522 0.10619717
000170 49 99 8c 3d 51 da 2c bf 65 38 b7 bd b0 e7 13 be
       0.06865174 -0.67520624 -0.08946303 -0.1444385
000180 d0 fa 91 3e 28 04 23 bb e0 76 a8 bd 4e f8 e5 3e
       0.28511667 -0.0024874303 -0.082257986 0.44916004
000190 66 63 14 3f 54 fb 8b 3d 9d 76 63 bd 89 50 48 3d
       0.5796417 0.068350464 -0.05553304 0.04890493
0001a0 6c 18 fe 3d 40 10 9b 3e 7f e1 69 be bb 29 ac ba
       0.12407002 0.30285835 -0.22839926 -0.0013134995
0001b0 d8 54 49 3e 69 2c 3b bd a4 09 38 bd c1 1f 8d bf
       0.19661272 -0.04569665 -0.04493107 -1.1025316
0001c0 31 84 61 bc 3c 9f ec bd 7b 69 3c 3e 48 67 7b 3e
       -0.013764427 -0.11553809 0.18399613 0.24551117
0001d0 32 dd ba 3e 0e 1e 65 3d 1a 8d 31 3e 37 bf 6a 3e
       0.36496884 0.055936866 0.17338982 0.22924505
0001e0 48 2d 7f be 36 8a f9 3d cd 50 62 bf b1 b6 81 bc
       -0.24919617 0.12184565 -0.8840454 -0.015834184
0001f0 05 c2 92 be b3 12 81 be 62 4d e7 be 7a f1 93 3d
       -0.2866365 -0.2520958 -0.45176226 0.072237924
000200 91 31 12 3f 9f fb b8 be fc 13 33 3e d9 ff 47 3f
       0.5710688 -0.36129472 0.17488092 0.7812477
000210 3d e5 9b be 14 4c e1 bc b9 12 56 3b 2a 2f 35 bf
       -0.30448332 -0.027502097 0.0032664968 -0.7077509
000220 5e fd 70 3e 85 60 f2 3e 70 49 88 3d d2 50 a7 bd
       0.23534152 0.47339264 0.06654632 -0.08169712
000230 8a a6 71 3e d9 16 42 3e ff 20 52 3e 49 fd db bd
       0.23598686 0.18954028 0.205204 -0.1074167
000240 e4 67 9b 3e 3f 4d 07 3d de 68 2a be 46 17 6b bd
       0.303527 0.033032652 -0.16641566 -0.057395242
000250 60 2e 7b 3e 0d 7d 33 bd 6d 8f 43 3e a3 6c 50 3e
       0.2452941 -0.04382043 0.19097681 0.20353942
000260 6e 7e a7 be c8 74 7c be 00 ef d2 3c e4 df f1 3d
       -0.32713646 -0.24653924 0.02574873 0.11810282
000270 a4 e9 74 bd 5a fd 32 be 4d de 04 bd 8a 4a b1 bd
       -0.05979313 -0.17479458 -0.032438565 -0.08656795
000280 1a 06 2d be 51 23 ea bc 8d f8 da bd 35 b6 32 be
       -0.16896859 -0.028581293 -0.106919385 -0.17452319
000290 62 75 ed 3e 8b a7 df 3d 7c a6 79 3d b1 33 8c bc
       0.46378618 0.10920628 0.060949787 -0.017114492
0002a0 7b 65 60 bc 99 80 77 be 24 6c 86 3f 9f 48 aa 3d
       -0.01369607 -0.2417015 1.0501752 0.083146326
0002b0 4c 7c dc 3d be 89 28 3e 77 1b 38 be 4b 06 74 bf
       0.10765895 0.16458794 -0.17979227 -0.953221
0002c0 01 7a 9d bd e4 a1 90 bf 4b 6f 32 3e 83 e0 91 bf
       -0.07689286 -1.1299405 0.17425267 -1.139664
0002d0 ed 24 ac 3d f9 37 c2 3d a2 86 a1 3e fd a4 e4 3e
       0.084054805 0.09483332 0.3154803 0.44657126
0002e0 42 d7 04 bc 52 c3 12 3e e2 ab 84 be 6c ba 44 be
       -0.008107962 0.14332321 -0.25912386 -0.1921174
0002f0 de 02 2b be 42 fa 1d 3e 44 ee a6 bd ad 46 0b be
       -0.16700312 0.15427497 -0.08150914 -0.1360118
000300 66 db 92 bd b4 2f a7 3c fc 94 39 3e 5b 1a 16 bf
       -0.07170753 0.020408489 0.1812324 -0.58633965
000310 e5 10 e5 3e d3 d1 e3 3d bb e3 ce 3a fc a3 06 3f
       0.44739452 0.11124005 0.0015784422 0.5259397
000320 92 fc 46 bf 43 a0 f4 bc 17 be bc 3c ec c1 56 3e
       -0.7772914 -0.029861575 0.02303986 0.20972413
000330 0a 3d 3e 3f c8 2d 79 be 40 fd 22 3e a0 a8 29 3e
       0.7431189 -0.2433387 0.1591692 0.16568232
000340 7c 86 e2 be 9b cc 2c be e7 3b e7 be a7 39 41 3e
       -0.44243228 -0.16874926 -0.4516289 0.18869649
000350 c5 12 4f bf 3c c9 21 be f6 25 fc 3e a1 5c 75 3d
       -0.80888015 -0.15799421 0.49247712 0.05990279
000360 52 e0 39 bf 70 2c fd 3e 8a d3 96 be de 7b 80 3c
       -0.7260791 0.49447966 -0.29458266 0.015684064
000370 18 4a 57 be d8 28 47 be 7f 4e 2a 3e 5e 57 90 3c
       -0.21024358 -0.19449174 0.16631506 0.017619785
000380 1e b1 f1 be 67 fb 51 3b 09 f6 1d 3c f7 6e bc 3e
       -0.47205442 0.0032040717 0.009641179 0.3680341
000390 22 52 85 3d 93 fb 84 bd 50 cb 94 be 6e bc 2c 3d
       0.06509806 -0.064932965 -0.29061365 0.042171888
0003a0 6a 21 22 3e 5c 43 50 3f 28 c4 0c 3f 14 e9 30 be
       0.15833059 0.8135278 0.5498681 -0.17276412
0003b0 52 3f 25 be 88 be 84 bd 6a d0 5a 3e e8 38 76 bf
       -0.16137436 -0.064816535 0.21368566 -0.9618058
0003c0 58 51 66 bd c9 9d 57 bf 1b 65 c8 3e cb e2 15 bf
       -0.05622992 -0.84225136 0.39139637 -0.58549184
0003d0 c1 a3 94 be 2f 5b c9 b9 b5 22 8f 3e cc c9 dd 3e
       -0.29031184 -0.00038405645 0.27956167 0.4331802
0003e0 fe 85 18 3f d6 cf ef 3d 60 1a 5f 3e 79 c1 56 3e
       0.59579456 0.117095634 0.21787405 0.20972241
0003f0 df 95 5b be 40 e5 d1 3e 15 75 c7 bd cb 5c 2e bd
       -0.2144389 0.40995216 -0.097391285 -0.042568963

Decoder.3.bias f4 [16]
000000 30 97 ca bd 29 82 cb bd 5b e5 31 be 12 9d a2 bd
       -0.09892118 -0.099369355 -0.17372648 -0.07940115
000010 1a c1 5c be 0e 45 28 be f7 82 21 be 77 93 18 be
       -0.21558037 -0.16432592 -0.15772615 -0.14900003
000020 73 be 88 be af 7e 23 be b8 db 53 be 19 fa 40 be
       -0.267078 -0.15966295 -0.20689285 -0.18845405
000030 d0 3a b9 be 3e ad fd bc 40 e5 9a be 07 ae 9b be
       -0.36177683 -0.030966397 -0.3025303 -0.3040621
